checkpoint/best_train_model.pt (torch, 615233 bytes, 23 tensors)

weight f4 [128, 32]
0	0xbe1795d5	-0.1480325
1	0xbea51b7c	-0.3224753
2	0xbde00429	-0.109382935
3	0xbef92899	-0.48663786
4	0xbef62414	-0.480744
5	0x3e819dbb	0.2531565
6	0x3ebdbbff	0.37057492
7	0x3cb1da85	0.021710644
8	0x3e02a653	0.1275876
9	0xbe9b4483	-0.30325708
10	0x3d15f3cc	0.036609456
11	0xbe9e0695	-0.30864397
12	0xbe92784c	-0.28607404
13	0xbd9a259f	-0.07526707
14	0x3c813d43	0.015776282
15	0xbec611f6	-0.38685578
16	0xbdbeca0b	-0.093158804
17	0xbd0c651d	-0.034276117
18	0x3e0320b4	0.12805444
19	0xbd3ffed5	-0.046873886
20	0x3dfb7412	0.12277998
21	0xbdb7023e	-0.089359745
22	0xbcb37df7	-0.02191065
23	0x3e943c0f	0.2895207
24	0xbdb6f7cf	-0.089339845
25	0x3e25b917	0.16183887
26	0xbddd82d3	-0.10815968
27	0x3dae1d8e	0.08501731
28	0x3c9e5bf1	0.01933095
29	0xbca27a1f	-0.019833623
30	0xbe0506db	-0.12990896
31	0xbdee5eca	-0.11639173
32	0x3ed90706	0.4238817
33	0x3e957015	0.29187074
34	0x3e19d053	0.15020876
35	0x3f1e3c85	0.61811095
36	0x3d68f333	0.056872558
37	0xbdf3e48f	-0.119088285
38	0x3e73529e	0.23761985
39	0xbd8d4b6a	-0.0689915
40	0xbe6d5e65	-0.2318054
41	0x3e35cbfc	0.17753595
42	0x3ead4c7a	0.3384741
43	0x3eb5104e	0.35364002
44	0x3da87662	0.08225705
45	0x3e00c09a	0.12573472
46	0x3e8ec101	0.27881625
47	0x3dc34941	0.095354564
48	0xbe1de86d	-0.15420695
49	0x3d3586e8	0.04431811
50	0x3dcaa7a3	0.098952554
51	0x3d9f3c35	0.077751555
52	0xbbe2d7ff	-0.0069227214
53	0xbe75ff30	-0.24023128
54	0xbe33cbb7	-0.1755818
55	0xbd98424e	-0.074345216
56	0x3e52ca00	0.2058487
57	0x3dfe3dcf	0.12414133
58	0xbe7b92d3	-0.24567728
59	0xbdfe0619	-0.12403507
60	0x3dba88c2	0.09108116
61	0xbdac96c5	-0.084271945
62	0xbe9698d7	-0.29413483
63	0x3df073b1	0.117408164
64	0x3dc4b8f4	0.096055895
65	0x3d3279e3	0.04357327
66	0x3eba8138	0.3642671
67	0xbcd5d6e8	-0.026103452
68	0xbe97faee	-0.29683632
69	0x3ecd3b6e	0.40084404
70	0x3e89976d	0.2687334
71	0xbe23968c	-0.15975398
72	0x3e0746ed	0.1321065
73	0xbe8197be	-0.25311083
74	0x3de22b8f	0.110434644
75	0x3e9d70ac	0.30750024
76	0x3d53cc2a	0.051708378
77	0x3ebdaa06	0.3704378
78	0xbd5c3dcb	-0.053769868
79	0x3e08b014	0.13348418
80	0xbdf26552	-0.118357316
81	0x3e4de5bd	0.2010717
82	0xbc52583d	-0.01283842
83	0x3ec6577b	0.38738617
84	0xbee270ea	-0.44226772
85	0xbea3f5e6	-0.32023543
86	0x3cdeb58a	0.027186174
87	0xbe68c441	-0.22731115
88	0x3e46e932	0.19424894
89	0x3e4dd19e	0.20099494
90	0x3e3cf222	0.18451741
91	0x3e668fb0	0.2251575
92	0x3b904f9a	0.0044040205
93	0x3e90977f	0.28240582
94	0x3e8934c2	0.26798064
95	0xbec11d00	-0.37717438
96	0xbe9a9f38	-0.301996
97	0x3e0048a1	0.12527706
98	0xbe021dec	-0.12706727
99	0x3d86eec0	0.06588507
100	0x3f127859	0.57214886
101	0xbdc336d7	-0.09531944
102	0xbeb878f0	-0.36029768
103	0xbeb7d811	-0.35907033
104	0xbccba38b	-0.024858257
105	0x3d65b50b	0.05608086
106	0xbd54c2a5	-0.05194344
107	0xbe2f7900	-0.17136002
108	0x3d73a3e5	0.059482474
109	0x3eb227a3	0.34795865
110	0xbe244c3a	-0.16044703
111	0x3d00e64d	0.031469632
112	0xbd83b354	-0.064306885
113	0xbd96e366	-0.073675916
114	0x3e0aa21c	0.13538402
115	0x3e80b74f	0.25139853
116	0x3d9cc310	0.07654393
117	0xbe6aa191	-0.22913195
118	0xbdc2a8c1	-0.095048435
119	0x3e5b78a8	0.21432745
120	0x3e26139b	0.16218416
121	0xbe81ee84	-0.25377285
122	0xbdf6af0e	-0.12045108
123	0x3cd0e1c1	0.025498273
124	0xbe66a161	-0.22522499
125	0xbe028536	-0.12746128
126	0xbe5c1c97	-0.21495281
127	0x3dd1480c	0.1021882
128	0x3e83751d	0.25675288
129	0x3e9a5eae	0.3015036
130	0x3f0a8088	0.54102373
131	0xbe9dc87c	-0.3081702
132	0x3f2f473d	0.68468076
133	0x3e5445eb	0.20729797
134	0x3eb95e94	0.3620497
135	0xbddfcaef	-0.109273784
136	0xbc1a5f1f	-0.009422093
137	0xbc8c8eaa	-0.017157871
138	0xbdc07ea3	-0.09399154
139	0xbea05efc	-0.31322467
140	0x3e532423	0.20619254
141	0xbd0528ad	-0.032509495
142	0x3e131d2b	0.14366595
143	0x3e5d113f	0.2158861
144	0xbdaaf859	-0.0834815
145	0x3dca9ea4	0.098935395
146	0xbdaede86	-0.08538537
147	0x3e1b35ee	0.15157291
148	0xbbd744ed	-0.006569496
149	0xbe12b25c	-0.14325851
150	0xbe5b791f	-0.21432923
151	0x3dc195f6	0.09452431
152	0x3e458169	0.19287647
153	0x3cc15dbe	0.02360427
154	0xbe21fcfb	-0.1581916
155	0xbda5483e	-0.0807042
156	0x3ddcf197	0.10788267
157	0x3e3872c6	0.18012533
158	0xbead16a8	-0.33806348
159	0x3e0f420b	0.13990037
160	0x3d94d0d0	0.0726639
161	0xbd6072a0	-0.054796815
162	0xbe3f66b2	-0.18691519
163	0xbe3db013	-0.18524198
164	0x3e9e4992	0.30915505
165	0x3d1e967f	0.038717743
166	0xbe418f3a	-0.18902293
167	0xbebabae2	-0.36470705
168	0xbd651e55	-0.05593713
169	0x3e34d053	0.17657594
170	0xbe0a39cf	-0.13498615
171	0xbcc3b9bf	-0.023892282
172	0x3df2770a	0.11839111
173	0x3e43ef1d	0.19134183
174	0x3cb838db	0.022488048
175	0x3e30e993	0.17276601
176	0xbda6cac5	-0.08144144
177	0xbeaa9b22	-0.33321482
178	0x3df15d61	0.11785389
179	0x3e3b2c69	0.1827866
180	0xbdc388f4	-0.09547606
181	0xbe0df066	-0.13861236
182	0xbd89f388	-0.06735903
183	0x3d71f367	0.059070017
184	0x3dfc3ee0	0.1231668
185	0xbe2867ac	-0.16445798
186	0xbdc90fe8	-0.09817487
187	0xbe560522	-0.20900396
188	0xbc869321	-0.016427578
189	0xbd75d5bc	-0.060018286
190	0xbe1ad375	-0.15119727
191	0xbdf697f8	-0.120407045
192	0x3b083b59	0.0020787327
193	0x3e92033a	0.28518087
194	0xbd96ab54	-0.07356897
195	0x3d5d6367	0.054049876
196	0x3e9da3ee	0.3078913
197	0x3ed22b94	0.41048872
198	0xbebb0c72	-0.36532933
199	0xbe3accf1	-0.18242241
200	0x3df060c9	0.1173721
201	0x3d3e428a	0.046450175
202	0x3e38b6ab	0.18038432
203	0xbe1e003e	-0.1542978
204	0x3e8807ce	0.26568455
205	0xbe98d700	-0.29851532
206	0x3f0dd5d2	0.5540439
207	0x3d63835b	0.055545192
208	0xbe0c5c0d	-0.1370699
209	0x3e384321	0.17994358
210	0xbe6e7f8c	-0.23290843
211	0x3d2a985a	0.0416492
212	0xbea62c98	-0.32455897
213	0xbe011f53	-0.12609605
214	0x3e61c084	0.22046095
215	0xbdd5b787	-0.10435396
216	0xbe48459e	-0.19557807
217	0xbece738f	-0.4032254
218	0xbe402638	-0.1876458
219	0xbe8baaa7	-0.27278635
220	0xbde787ee	-0.113052234
221	0xbde0eb76	-0.109824106
222	0x3d278e11	0.04090697
223	0xbdb3190d	-0.087450124
224	0x3d0d4fd8	0.034499973
225	0xbccee24c	-0.025254391
226	0xbe5b7d6e	-0.21434566
227	0xbe21609b	-0.15759508
228	0x3f082f04	0.5319674
229	0x3ea48d51	0.32139066
230	0x3e961c33	0.2931839
231	0xbe4189d1	-0.18900229
232	0xbdff5493	-0.12467303
233	0x3e5f6dc5	0.21819218
234	0x3ea48933	0.32135925
235	0xbd98de49	-0.074642725
236	0x3e358ddb	0.17729895
237	0xbdd4a25a	-0.103825286
238	0xbe51f145	-0.20502193
239	0x3d1ee983	0.038796913
240	0xbc92df37	-0.017928703
241	0xbcce016d	-0.025147164
242	0x3e37e69f	0.17959069
243	0x3dfe4e6d	0.12417302
244	0xbd818af8	-0.06325334
245	0xbe0872c8	-0.13325036
246	0xbd6da4ca	-0.058018483
247	0x3e757c5b	0.23973219
248	0x3e51fc94	0.20506507
249	0x3cd6b24c	0.026208065
250	0xbd7e69cc	-0.062112615
251	0x3e8e23f0	0.27761793
252	0xbe79c8d1	-0.24393012
253	0x3d89c7f6	0.06727593
254	0xbdcf416c	-0.101199
255	0x3c777b11	0.015105025

bias f4 [128]
0	0xbe0474e6	-0.12935218
1	0xbc163393	-0.00916757
2	0xbdfc3c56	-0.12316196
3	0xbeae91c2	-0.3409558
4	0xbd962716	-0.07331674
5	0xbed5f7ff	-0.41790769
6	0xbd3de952	-0.04636509
7	0xb9ddf95e	-0.00042338198
8	0xbbdeb1ad	-0.006796083
9	0xbd91957b	-0.07108589
10	0x3e78c232	0.2429283
11	0xbea45fc9	-0.32104328
12	0xbe0e0764	-0.13870007
13	0xbd026c2c	-0.031841442
14	0xbe870c7c	-0.26376712
15	0xbe9aad92	-0.3021055
16	0xbdc69c10	-0.09697735
17	0xbd686515	-0.056737024
18	0x3c8c7733	0.017146682
19	0x3eaa5349	0.33266667
20	0x3d35b67d	0.044363488
21	0xbeabc17a	-0.33546048
22	0xbdc14e97	-0.09438818
23	0xbdb8205c	-0.08990547
24	0xbe99d2c7	-0.30043623
25	0x3eb5b152	0.35486847
26	0xbe3d5ee9	-0.18493237
27	0xbed1419d	-0.4087037
28	0xbe3c47c6	-0.18386754
29	0xbe3bb450	-0.18330503
30	0xbd834f83	-0.0641165
31	0x3a9d4da7	0.0012001292
32	0xbdb41ed5	-0.08794943
33	0x3e9bd755	0.30437723
34	0xbe3e1235	-0.18561633
35	0xbe3ee2ce	-0.18641207
36	0x3e7187ec	0.23587006
37	0xbee7e528	-0.4529202
38	0xbeaa7a08	-0.33296227
39	0xbe61f523	-0.22066168
40	0xbd89416e	-0.06701933
41	0xbe2363e6	-0.15956077
42	0xbe808360	-0.2510023
43	0xbe998dfe	-0.29991144
44	0xbe7982e8	-0.24366343
45	0x3ce2e68b	0.027697822
46	0xbe6eaeed	-0.23308916
47	0xbe77c7e2	-0.24197343
48	0xbeab7463	-0.33487234
49	0xbd69e5bc	-0.057103857
50	0x3cac8581	0.021059753
51	0xbc32c9e8	-0.010912396
52	0x3d41dc88	0.047329456
53	0x3c56b6b7	0.013105086
54	0xbd146e6d	-0.036238123
55	0xbe3a9832	-0.1822212
56	0xbe5274d5	-0.2055238
57	0xbe15b91d	-0.14621396
58	0xbca916a6	-0.020640682
59	0xbe9c4f9b	-0.30529484
60	0xbc9efa99	-0.019406604
61	0xbe57870f	-0.21047615
62	0x3e88bfe0	0.2670889
63	0xbe917cc2	-0.28415495
64	0xbe6128c1	-0.21988203
65	0xbd9cd289	-0.07657344
66	0xbe4a61db	-0.19763891
67	0xbe74f80d	-0.23922749
68	0xbd60103b	-0.05470298
69	0xbea5b0e6	-0.32361525
70	0x3d439e17	0.047758188
71	0x3e783158	0.24237573
72	0xbe820bff	-0.25399777
73	0xbec9d015	-0.39416566
74	0xbe8bb37a	-0.27285367
75	0xbe3b7174	-0.18304998
76	0xbc0ab89e	-0.008466868
77	0x3e0dc81f	0.13845871
78	0xbe4722b5	-0.19446833
79	0x3dacd01e	0.08438133
80	0xbd9aeaff	-0.07564353
81	0xbcd3e773	-0.0258672
82	0xbe85c0d9	-0.26123694
83	0x3b22b80e	0.0024828943
84	0xbe50a5e1	-0.20375778
85	0xbd56b7bb	-0.052421313
86	0x3c8abb1a	0.01693492
87	0x3e0a566a	0.13509527
88	0x3dc7fcf0	0.09765041
89	0xbe6dbb5d	-0.23216005
90	0xbe7b1c06	-0.24522409
91	0x3be46e52	0.006971159
92	0x3de2b357	0.110693626
93	0xbea7a249	-0.32741
94	0x3dade379	0.084906526
95	0x3e04d881	0.12973215
96	0xbde75ac2	-0.112966076
97	0x3e5dc719	0.21657981
98	0xbe30e6b6	-0.17275509
99	0xbe36fd15	-0.1786998
100	0xbe696b8b	-0.2279493
101	0xbe8ead13	-0.2786642
102	0xbd33e602	-0.043920524
103	0xbe6e8627	-0.23293363
104	0xbec9b387	-0.3939478
105	0xbe34b45a	-0.17646924
106	0xbe00cce5	-0.12578161
107	0x3d9027e6	0.0703886
108	0xbe69df1f	-0.2283902
109	0xbe92a310	-0.28640032
110	0xbebb87db	-0.36627087
111	0xbe85acd7	-0.2610843
112	0xbe0d3194	-0.13788444
113	0xbe6c84cc	-0.23097533
114	0xbea146f4	-0.31499445
115	0xbc16c911	-0.009203211
116	0x3dd19288	0.10233027
117	0x3d40e7a0	0.047095895
118	0xbcdbe316	-0.026841681
119	0xbe872f79	-0.26403406
120	0xbe7a03bb	-0.24415486
121	0x3d5b1421	0.053485993
122	0x3dbb4421	0.09143854
123	0xbe8211dc	-0.2540425
124	0xbe344985	-0.1760617
125	0xbe9f927a	-0.3116644
126	0xbd968b4e	-0.07350789
127	0xbcab0b15	-0.020879308

weight f4 [64, 128]
0	0xbe2be2cb	-0.16785733
1	0xbe9973cf	-0.29971167
2	0xbde3d863	-0.11125257
3	0x39f0bac1	0.0004591551
4	0xbec35655	-0.38151804
5	0xbd94fca5	-0.072747506
6	0xbe989d4f	-0.29807517
7	0xbe6c6b35	-0.23087771
8	0xbe2b3122	-0.16717961
9	0xbe6d7f09	-0.23192991
10	0xbdd90322	-0.10596301
11	0xbec12da4	-0.37730134
12	0xbed2ee07	-0.41197225
13	0xbe6ee5e5	-0.23329885
14	0xbe9add2f	-0.30246875
15	0xbe4a6fcc	-0.1976921
16	0xbe3ffbb3	-0.1874836
17	0xbecdfdb7	-0.40232632
18	0xbeba57e6	-0.36395186
19	0xbdf06858	-0.11738652
20	0xbeab9c97	-0.33517906
21	0x3e04c6fc	0.12966532
22	0xbe8fd681	-0.2809334
23	0xbebcc67a	-0.36870176
24	0xbdbea444	-0.09308675
25	0xbe112457	-0.14174019
26	0xbe193344	-0.14960963
27	0x3da991dd	0.08279774
28	0x3e0c7477	0.13716303
29	0xbe757ec3	-0.23974137
30	0xbdcd23e2	-0.1001661
31	0xbe86247b	-0.26199707
32	0xbe69fcb7	-0.2285031
33	0xbe6dffa3	-0.23242049
34	0xbe71093a	-0.23538676
35	0xbe988cfb	-0.2979506
36	0xbdf7f769	-0.121077366
37	0x3e5f6177	0.21814524
38	0x3d76d3d1	0.060260598
39	0xbea3f212	-0.32020622
40	0xbe636a4f	-0.22208522
41	0xbe68e79a	-0.22744599
42	0xbee02edb	-0.43785748
43	0x3df02f6f	0.11727797
44	0xbe440053	-0.19140749
45	0xbe9872d6	-0.29775113
46	0xbee9eb02	-0.4568711
47	0x3dd688e8	0.104753315
48	0xbe0bdeb3	-0.13659172
49	0xbe843766	-0.25823516
50	0xbe916043	-0.28393754
51	0xbe774014	-0.24145538
52	0xbda04507	-0.07825666
53	0xbe929020	-0.28625584
54	0xbe1e3f2d	-0.15453787
55	0xbeb2bcaf	-0.3490958
56	0xbe1cc4fa	-0.15309516
57	0xbd071728	-0.032981068
58	0xbe7f2fa5	-0.24920519
59	0xbe773ff8	-0.24145496
60	0xbebe6af3	-0.3719097
61	0xbee72a61	-0.4514952
62	0xbddf2f6c	-0.10897717
63	0xbebfc90a	-0.37458068
64	0x3e9919f4	0.29902613
65	0xbe1af1ee	-0.15131351
66	0xbea36dcc	-0.31919706
67	0x3ce67870	0.028133601
68	0xbe839fd1	-0.25707868
69	0xbe88c009	-0.2670901
70	0xbe8c2226	-0.27369803
71	0xbe114b9a	-0.14188996
72	0x3e23b26c	0.15986031
73	0xbca31a6e	-0.019910064
74	0x3e0bd583	0.13655667
75	0x3cc7e604	0.024401672
76	0xbea1e272	-0.31618077
77	0x3d1163f2	0.035495706
78	0xbd188b2f	-0.03724211
79	0xbe86ed5b	-0.26352963
80	0xbea6a893	-0.32550487
81	0xbecd1972	-0.40058476
82	0xbd13dd3c	-0.036099657
83	0xbecccf24	-0.40001786
84	0xbe869780	-0.2628746
85	0xbea5e383	-0.3240014
86	0xbeaae137	-0.3337495
87	0xbe999eae	-0.30003875
88	0xbe56c41e	-0.2097325
89	0xbe039904	-0.1285134
90	0xbb00230b	-0.0019552137
91	0xbe5f8233	-0.21827011
92	0xbdf7a8f6	-0.120927736
93	0xbebb1784	-0.36541378
94	0xbef9c801	-0.48785403
95	0xbe187dc0	-0.1489172
96	0xbe81fbf8	-0.2538755
97	0xbe74b42e	-0.23896858
98	0xbeae8d15	-0.34092012
99	0xbe365c04	-0.17808539
100	0xbe154bda	-0.14579716
101	0x3d03397c	0.032037243
102	0xbdb4b3d9	-0.08823366
103	0xbe6480a4	-0.22314698
104	0xbeb0e4c3	-0.3454953
105	0xbe515b7c	-0.20445055
106	0xbe70641a	-0.23475686
107	0xbed21361	-0.4103041
108	0xbea9daad	-0.3317465
109	0xbe9baa94	-0.30403578
110	0xbe53847e	-0.2065601
111	0xbd875fb9	-0.066100545
112	0xbdec6d21	-0.11544252
113	0xbea67c0e	-0.3251652
114	0xbe0aa254	-0.13538486
115	0xbe8ce441	-0.27517894
116	0xbe4c5d1f	-0.19957398
117	0xbe852c2b	-0.2601026
118	0xbe28f341	-0.16499044
119	0x3e3c71dd	0.1840281
120	0x3d8cf835	0.06883279
121	0xbebbd062	-0.3668242
122	0xbdf28b28	-0.11842948
123	0xbe8d87aa	-0.27642566
124	0x3df1f92b	0.11815103
125	0xbe130824	-0.14358574
126	0xbe9241ef	-0.28565928
127	0xbe930a6b	-0.28718886
128	0xbcc4447a	-0.023958433
129	0x3e61aadb	0.22037832
130	0x3e045252	0.12922028
131	0x3dc2a5c3	0.09504273
132	0xbe3f2097	-0.18664776
133	0x3ded687d	0.11592195
134	0xbdb4cda0	-0.08828282
135	0xbe392f6a	-0.18084493
136	0x3bb957da	0.0056562247
137	0xbdc3e780	-0.095656395
138	0xbe4bccea	-0.19902387
139	0x3dd5c036	0.10437052
140	0xbe3be009	-0.18347181
141	0x3d0053ce	0.031329922
142	0x3e5b32f8	0.21406162
143	0x3ed01727	0.40642664
144	0xbd8780c1	-0.06616355
145	0x3e052ccb	0.13005368
146	0x3d9c69a9	0.076373406
147	0xbe31662b	-0.1732413
148	0xbec070b2	-0.3758598
149	0x3d8a92f6	0.06766312
150	0xbe30784c	-0.1723339
151	0xbd009ab9	-0.031397555
152	0x3eb2ae69	0.3489869
153	0xbd8e7216	-0.06955354
154	0xbd6edbd8	-0.058315128
155	0x3e28bf2a	0.16479173
156	0xbe55a6f2	-0.20864466
157	0x3cd8e4a0	0.026476204
158	0xbed32808	-0.4124148
159	0x3e10f12c	0.141545
160	0x3d8ad16d	0.06778226
161	0xbe1848ad	-0.14871474
162	0xbec2f69c	-0.38078773
163	0xbe0661ca	-0.13123241
164	0xbe01cece	-0.12676546
165	0x3df8b969	0.12144739
166	0x3eceda54	0.40400946
167	0xbd38cb71	-0.04511589
168	0xbe2fb68b	-0.17159478
169	0x3e2a2cb5	0.16618617
170	0xbec28088	-0.37988687
171	0xbdd8d42d	-0.10587344
172	0xbdb8e4c4	-0.090280086
173	0x3c813059	0.015770124
174	0xbcef9273	-0.029244637
175	0xbd8496f0	-0.064741015
176	0x3e03dfc0	0.12878323
177	0x3d809529	0.0627845
178	0xbea25df6	-0.31712312
179	0xbe95995f	-0.29218575
180	0x3ca49cea	0.020094354
181	0xbe8b323b	-0.2718676
182	0xbe01f0fd	-0.12689586
183	0x3db32dcd	0.0874897
184	0x3d5e3385	0.05424835
185	0xbda1a86e	-0.078934535
186	0xbef936de	-0.48674673
187	0x3e515b9d	0.20445104
188	0x3e337690	0.17525697
189	0x3d5a6d14	0.05332668
190	0xbde9a4ae	-0.11408363
191	0x3dfc2b8b	0.12312993
192	0x3dcaca0a	0.09901817
193	0xbeb6ecea	-0.35727626
194	0x3e8ea520	0.27860355
195	0xbef34916	-0.47516698
196	0xbe8a0b30	-0.2696166
197	0xbe77c976	-0.24197945
198	0x3d5c7163	0.05381907
199	0xbeb15c5c	-0.34640777
200	0xbd93ca20	-0.07216287
201	0x3d85d764	0.06535223
202	0x3dc81dc4	0.09771302
203	0xbebc05e1	-0.36723235
204	0xbd846cfa	-0.06466098
205	0x3e1e1efc	0.15441507
206	0xbdd8cd28	-0.105860054
207	0xbea6db64	-0.32589257
208	0x3ea1456d	0.3149828
209	0xbca4c491	-0.020113261
210	0x3ee46766	0.44610137
211	0xbdb1a6ec	-0.08674416
212	0xbdbffbab	-0.09374174
213	0x3e007bf1	0.1254728
214	0xbe92e912	-0.28693444
215	0x3d19a245	0.037508268
216	0xbbe23448	-0.006903205
217	0xbd29333b	-0.041308623
218	0x3e2f2249	0.17102922
219	0x3dcc56cb	0.09977492
220	0xbd5642bf	-0.052309748
221	0x3e87f927	0.26557276
222	0xbda56c02	-0.080772415
223	0x3d8a042d	0.06739078
224	0x3b851683	0.0040615215
225	0xbe1a699e	-0.15079352
226	0x3e05d6ed	0.13070269
227	0x3e5468cf	0.20743106
228	0xbc0e4614	-0.0086837
229	0x3b947b8d	0.00453133
230	0x3e2034ab	0.15645091
231	0xbc2c473c	-0.0105150305
232	0xbe8f4b42	-0.27987105
233	0xbb657bad	-0.0035016343
234	0xbe9257bd	-0.28582564
235	0xbdf42b1d	-0.11922286
236	0xbd629a76	-0.055323087
237	0xbe96634b	-0.2937263
238	0xbd1989c0	-0.037484884
239	0x3b56bdce	0.003276694
240	0x3e244553	0.1604207
241	0xbd3fe57a	-0.046849705
242	0x3eb16a90	0.34651613
243	0x3b7f34f2	0.003894147
244	0x3baabcee	0.0052105105
245	0xbe84cb2f	-0.25936267
246	0x3dcee2ed	0.101018764
247	0x3dc596bb	0.0964789
248	0xbef97334	-0.48720706
249	0x3d2f3df8	0.042783707
250	0xbbc33832	-0.0059576267
251	0xbdaef9e4	-0.085437566
252	0x3db0728a	0.086155966
253	0x3d30c13e	0.04315304
254	0x3db3f367	0.0878666
255	0xbcaf8b80	-0.021428823

bias f4 [64]
0	0xbf3ad1c3	-0.7297632
1	0x3e861f50	0.26195765
2	0xbdecf873	-0.115708254
3	0x3f0a0bd4	0.539243
4	0xbe01c5a3	-0.12673049
5	0xbf263c83	-0.64936084
6	0xbf3c1e02	-0.7348329
7	0x3e8ba815	0.27276674
8	0xbe276405	-0.16346748
9	0xbf2c8a29	-0.67398316
10	0xbefb479c	-0.4907807
11	0x3eb7f950	0.35932398
12	0x3e03b33b	0.1286134
13	0xbecc5b33	-0.3991333
14	0xbe62cc6c	-0.22148293
15	0xbf50bf20	-0.81541634
16	0x3d7185fa	0.05896566
17	0xbe37341c	-0.17890972
18	0x3ec5d385	0.3863794
19	0xbf2c3073	-0.6726143
20	0x3f27cc71	0.6554633
21	0xbf3e0a29	-0.74234253
22	0x3dc21ee1	0.09478546
23	0x3c50809c	0.012725975
24	0xbf22011d	-0.6328295
25	0xbf246a4f	-0.64224714
26	0xbf3b7bb6	-0.7323564
27	0xbf2b4e15	-0.6691602
28	0x3bbc60fe	0.005748867
29	0xbe482944	-0.19546992
30	0x3e8668b3	0.26251754
31	0xbe0789ea	-0.13236204
32	0x3e928664	0.28618157
33	0xbf3105fb	-0.6914975
34	0xbf320d72	-0.69551766
35	0xbe7f2c9d	-0.24919362
36	0x3e8120a1	0.25220206
37	0x3f084cd9	0.5324226
38	0xbf03303e	-0.51245487
39	0x3e09398b	0.13400857
40	0xbd8eaffa	-0.069671586
41	0x3ee19ff9	0.44067362
42	0x3eb500dd	0.3535222
43	0x3e8db64f	0.27678153
44	0xbf3695dd	-0.71322423
45	0xbf17efd0	-0.593503
46	0x3dad3939	0.0845818
47	0xbdd91648	-0.10599953
48	0xbf1bb7ae	-0.6082715
49	0xbf077f44	-0.52928567
50	0x3ee0876b	0.43853316
51	0x3dffc5c2	0.12488891
52	0x3e8cceb2	0.27501446
53	0x3ece3598	0.40275264
54	0x3e1b56ef	0.15169881
55	0xbe52a6d9	-0.2057146
56	0x3e829b05	0.25508896
57	0x3e1b1c1e	0.15147445
58	0xbf48f452	-0.78497803
59	0xbe4cf211	-0.20014216
60	0x3e82addc	0.2552327
61	0xbf09abde	-0.53777874
62	0x3e5e1793	0.2168868
63	0x3ef8731d	0.48525324

weight f4 [32, 64]
0	0x3d78cee9	0.0607442
1	0xbe824c54	-0.2544886
2	0xbe06985d	-0.1314406
3	0xbc265c27	-0.010153807
4	0xbd3a8619	-0.04553804
5	0xbc0a0653	-0.008424359
6	0x3d9c7222	0.076389566
7	0xbe3efe59	-0.18651713
8	0x3e1869fa	0.14884177
9	0x3e09a464	0.13441616
10	0x3e256682	0.16152385
11	0xbde57c5f	-0.112053625
12	0xbf0f9aef	-0.56095785
13	0x3d887878	0.066636026
14	0x3e235d62	0.15953591
15	0x3cf08981	0.029362442
16	0xbdeb3d24	-0.11486271
17	0x3e4ca8c1	0.1998625
18	0x3d597d30	0.053097904
19	0x3d689ec0	0.05679202
20	0xbb1d1ae5	-0.002397233
21	0x3e034c1b	0.12822
22	0xbdd17489	-0.102273054
23	0x3cb83646	0.022486817
24	0xbd8a494f	-0.06752264
25	0x3dbe36b1	0.09287775
26	0xbd8bf647	-0.06834083
27	0x3e173d48	0.1476947
28	0x3c767578	0.015042655
29	0x3e131e2f	0.14366983
30	0xbe845312	-0.25844628
31	0xbe7d8015	-0.2475589
32	0xbde023c7	-0.10944324
33	0xbd106aef	-0.03525823
34	0x3e3505ec	0.1767804
35	0x3e40ea7e	0.18839452
36	0x3d8d3b82	0.06896116
37	0xbdf2fdb7	-0.118647985
38	0x3b9eb235	0.0048430213
39	0xbdd17b00	-0.102285385
40	0xbe01ed40	-0.1268816
41	0x3ddd4c21	0.10805536
42	0xbdc5f212	-0.09665312
43	0xbeb90af9	-0.36141184
44	0x3e0f8958	0.14017236
45	0x3e297eb5	0.16552241
46	0xbd0bf0dc	-0.03416525
47	0xbec6ca8b	-0.38826403
48	0x3dc0afca	0.09408529
49	0x3e616b0c	0.22013491
50	0x3d1864bc	0.037205443
51	0x3d15fb85	0.03661682
52	0x3d96881c	0.073501796
53	0xbdc2fc2a	-0.09520753
54	0x3d235282	0.039873607
55	0x3e4ccc82	0.19999889
56	0x3e1b34f8	0.15156925
57	0x3d8209c7	0.06349521
58	0x3d54c131	0.051942054
59	0x3d47251f	0.048619386
60	0xbe88519e	-0.2662477
61	0x3ca5d90e	0.020245101
62	0xbe8c6ff4	-0.27429163
63	0x3d59aa00	0.05314064
64	0xbea8d35a	-0.32973748
65	0xbe6704c2	-0.22560409
66	0xbd961d43	-0.073298
67	0x3e94b8e4	0.2904731
68	0xbe216f2b	-0.15765063
69	0xbe3e66a5	-0.18593843
70	0xbec5eb0f	-0.38655898
71	0xbcc99ddb	-0.024611404
72	0x3d0b7e24	0.034055844
73	0xbe9ac545	-0.3022863
74	0xbd9b4940	-0.07582331
75	0x3e27cb89	0.16386236
76	0xbe1a5100	-0.15069962
77	0xbd32e132	-0.043671794
78	0xbdc87b00	-0.097890854
79	0xbea9fa97	-0.33198997
80	0xbd76aee3	-0.06022538
81	0xbc1f8a24	-0.009737525
82	0x3e5da614	0.21645385
83	0xbe887cc2	-0.26657683
84	0x3deccba8	0.11562282
85	0xbec7857a	-0.38969022
86	0x3ca04b33	0.019567108
87	0xbe0a6883	-0.1351643
88	0xbe9447e2	-0.28961092
89	0xbe472304	-0.19446951
90	0xbe12af07	-0.1432458
91	0xbe0c3403	-0.13691716
92	0x3c1e44e1	0.009659977
93	0xbdae1994	-0.085009724
94	0xbdf91763	-0.12162664
95	0x3c77df5f	0.015128939
96	0xbd8e9a9e	-0.06963085
97	0xbe5b895e	-0.2143912
98	0xbe318961	-0.17337562
99	0xbe84437e	-0.25832742
100	0x3bc75368	0.006082941
101	0x3ceeae79	0.02913593
102	0xbddb195b	-0.106981955
103	0x3daa4a5f	0.083149664
104	0xbe53a0b3	-0.2066677
105	0x3ead80e2	0.33887392
106	0x3d9a2649	0.075268336
107	0x3dce4c11	0.10073102
108	0xbea27a58	-0.31733966
109	0xbdda76ce	-0.106671914
110	0xbd4abea3	-0.04949821
111	0xbe5f22f3	-0.21790676
112	0xbe80a487	-0.25125524
113	0xbdebbae0	-0.11510253
114	0x3e2ac569	0.16676868
115	0xbe0797be	-0.13241479
116	0xbd55b3c4	-0.05217339
117	0x3e3f3697	0.18673168
118	0x3ef3d332	0.47622067
119	0xbd8cbfe7	-0.0687254
120	0x3de87403	0.113502525
121	0xbd7f16d3	-0.062277626
122	0xbeb148e2	-0.34625918
123	0x3d50a63d	0.050939787
124	0xbdaf77fc	-0.08567807
125	0xbe5fd2e5	-0.21857794
126	0x3cf5ca7f	0.030003784
127	0x3e3e8705	0.18606193
128	0xbe1f17d5	-0.15536435
129	0xbe6fe8c3	-0.23428635
130	0xbe8c5b2d	-0.27413312
131	0x3ed195c7	0.40934584
132	0xbf12da9e	-0.57364833
133	0xbdee3251	-0.11630691
134	0xbdb1a55c	-0.08674118
135	0xbdbc61bc	-0.09198329
136	0xbe7aa97d	-0.24478717
137	0xbdbedfd4	-0.093200356
138	0xbe017ed0	-0.12646031
139	0x3dc3a01e	0.09552024
140	0xbdc1718b	-0.09445485
141	0xbe909100	-0.28235626
142	0xbe5d3732	-0.21603087
143	0xbdb4d06f	-0.08828818
144	0xbd914a5b	-0.0709426
145	0xbe276382	-0.16346553
146	0x3e5659bc	0.20932668
147	0xbe97cfa8	-0.29650617
148	0x3e940033	0.28906402
149	0xbe6730b9	-0.2257718
150	0xbbf996cd	-0.007616854
151	0xbf1b4882	-0.60657513
152	0xbe7437fa	-0.23849478
153	0xbdddd970	-0.108324885
154	0xbe8294cd	-0.2550415
155	0xbe608d69	-0.21928944
156	0xbe3962a8	-0.1810404
157	0xbdf2076e	-0.11817823
158	0xbed4a79e	-0.41534132
159	0xbf157420	-0.5838032
160	0x3c9fca52	0.019505654
161	0xbe9509b6	-0.2910897
162	0xbddc2fa9	-0.10751278
163	0xbd48263a	-0.04886458
164	0xbdf58829	-0.11988861
165	0x3e9204e7	0.28519365
166	0xbdd448f4	-0.10365477
167	0xbde0fe91	-0.10986055
168	0xbf594dc5	-0.8488429
169	0x3ee704fd	0.45120993
170	0x3dcf262d	0.10114703
171	0xbec73a6e	-0.38911766
172	0xbe480585	-0.19533356
173	0xbe46f9de	-0.19431254
174	0xbe5c134b	-0.21491735
175	0xbf06a0b9	-0.52588993
176	0xbe0f5ad0	-0.13999486
177	0xbe9b60f1	-0.30347398
178	0x3ef7170c	0.4825977
179	0xbe79cfa5	-0.24395616
180	0xbdfce092	-0.12347521
181	0x3e967df8	0.29392982
182	0x3f343dd0	0.7040682
183	0xbe09b6f5	-0.13448699
184	0xbe02b5c7	-0.12764655
185	0xbdd10dd1	-0.102077134
186	0xbe20860c	-0.15676135
187	0xbd273628	-0.04082313
188	0xbe639b07	-0.22227107
189	0xbde72dbb	-0.11288019
190	0xbea89c6b	-0.32931837
191	0x3eb6f0af	0.35730502
192	0xbeae00f5	-0.33985105
193	0xbe59e9d8	-0.2128061
194	0x3ce56d75	0.028006295
195	0x3e1d45b7	0.15358625
196	0xbde2f36d	-0.11081586
197	0xbe40f147	-0.1884204
198	0xbe405a41	-0.18784429
199	0x3d7a72a9	0.061144505
200	0x3dd2e242	0.102970615
201	0xbea59fd8	-0.32348514
202	0xbe568d00	-0.20952225
203	0x3e16df8a	0.14733711
204	0xbe036e66	-0.12835082
205	0xbe3c717c	-0.18402666
206	0xbddbb772	-0.10728349
207	0xbe87b113	-0.26502284
208	0xbe1ccf27	-0.15313397
209	0xbe17f899	-0.14840926
210	0xbbdc4309	-0.0067218584
211	0xbe065577	-0.1311854
212	0x3d6bf0fe	0.057602875
213	0xbe8a8de5	-0.27061382
214	0xbdd6711a	-0.10470791
215	0x3cbe143d	0.02320301
216	0xbe806ebb	-0.2508448
217	0xbe4e865b	-0.2016844
218	0xbe77dc0d	-0.24205036
219	0xbdca014c	-0.098635286
220	0xbc7e970f	-0.015538945
221	0xbd4d0711	-0.050055567
222	0xbe2e331e	-0.17011687
223	0xbe280171	-0.164068
224	0xbd05eb9b	-0.032695394
225	0xbeba3882	-0.36371237
226	0xbe72e2ff	-0.23719405
227	0xbe31952d	-0.17342062
228	0xbd9bc497	-0.07605856
229	0x3db99131	0.09060896
230	0xbde4b9d6	-0.11168258
231	0x3b9a6ad0	0.00471244
232	0xbe9adcba	-0.30246526
233	0x3a5fa01b	0.00085306325
234	0xbdc32222	-0.09527995
235	0xbd8b5c8a	-0.0680476
236	0xbe4847d3	-0.19558649
237	0xbe34e49a	-0.1766533
238	0x3d196e7f	0.037458893
239	0xbd1436dd	-0.036185134
240	0xbeb2e5df	-0.34941003
241	0xbd40fd13	-0.04711635
242	0x3daf1d8b	0.08550557
243	0xbe8e358d	-0.2777523
244	0xbdb1706a	-0.086640194
245	0x3e0ac860	0.13553
246	0xbd991952	-0.074755326
247	0xbd94ee4a	-0.072720125
248	0x3c406252	0.011742191
249	0xbe1e2c24	-0.15446526
250	0xbe74e4fe	-0.23915479
251	0xbca4cba7	-0.02011664
252	0xbe3317fd	-0.1748962
253	0xbe8ed083	-0.27893457
254	0x3d2efe5b	0.04272304
255	0x3c66eae3	0.014094087

bias f4 [32]
0	0x3e09fd2a	0.1347548
1	0x3f8cc1b9	1.099662
2	0x3e37a8ca	0.17935482
3	0x3f7e9085	0.9943927
4	0xbf7da6c0	-0.99082565
5	0xbf4a83b4	-0.79107213
6	0xbf897b8c	-1.0740829
7	0x3f4d5228	0.80203485
8	0x3f83582b	1.0261282
9	0xbf875172	-1.057173
10	0xbf805e27	-1.0028733
11	0xbf8255c8	-1.0182428
12	0x3ef8510c	0.48499334
13	0xbe2486d6	-0.16067061
14	0x3f637eee	0.88865554
15	0xbf80b16f	-1.0054148
16	0x3f531a27	0.8246178
17	0xbf8ab0ac	-1.0835166
18	0xbf8684b6	-1.050925
19	0xbf34c45c	-0.7061212
20	0xbf8220b3	-1.0166229
21	0x3f89475b	1.0724901
22	0xbf84e7d1	-1.0383245
23	0x3f83706c	1.0268683
24	0xbf859dd3	-1.0438789
25	0x3f515e6f	0.8178472
26	0x3f7b3bbc	0.9813802
27	0x3f87c490	1.0606861
28	0x3f87ad47	1.0599755
29	0xbf7f8c2e	-0.9982327
30	0x3f88cbae	1.0687158
31	0xbf7e05d4	-0.99227643

weight f4 [6042, 8]
0	0xbf8c1338	-1.0943365
1	0x3fa3bf16	1.279269
2	0x3ee5071b	0.44731984
3	0x3fc4aaf3	1.536467
4	0x3e909452	0.2823816
5	0xbeec520d	-0.4615635
6	0xbf8a5167	-1.0806092
7	0xbe9289c6	-0.28620738
8	0xbf54dafd	-0.8314665
9	0xbfadda43	-1.3582233
10	0x3fe0a190	1.7549305
11	0x3fa7355f	1.3063163
12	0x3e66b0cb	0.22528379
13	0xbed30acb	-0.41219172
14	0xbff7e85e	-1.9367788
15	0x3f8cd575	1.1002642
16	0x3fcd1d35	1.6024538
17	0xbe490239	-0.19629754
18	0x3f7f9681	0.99839026
19	0xbf4c4a47	-0.7980084
20	0xbe44ed19	-0.1923107
21	0xbffd0694	-1.9767632
22	0xbfc4acd1	-1.5365239
23	0x3f116c0c	0.5680549
24	0xbf20032c	-0.6250484
25	0x3fe058fd	1.7527157
26	0xbec307f6	-0.3809201
27	0x406725eb	3.6116893
28	0xbf331a3e	-0.6996192
29	0x3f8f1064	1.1176877
30	0xbf93200c	-1.1494155
31	0x3ec05618	0.37565684
32	0xc016ea1c	-2.358039
33	0xbed4d640	-0.4156971
34	0x3fc30d2a	1.5238392
35	0x3e8c3aa4	0.2738849
36	0xbf923b48	-1.1424341
37	0x3f86bc24	1.0526166
38	0xbff9e11b	-1.9521822
39	0x3eb14191	0.34620336
40	0x3ec39771	0.38201478
41	0x3f76b46a	0.9636904
42	0x3f2bd780	0.671257
43	0xbeeaabca	-0.4583419
44	0x401508bc	2.328658
45	0x3f88c1c7	1.0684136
46	0x3eb27488	0.3485453
47	0x3e5665b9	0.20937242
48	0x3de1f4ed	0.11033044
49	0x3f9846dd	1.1896626
50	0xbff9ac4f	-1.950571
51	0xc006ef23	-2.1083457
52	0x3f795de3	0.97408885
53	0x3fccc598	1.5997801
54	0x401f8509	2.4924948
55	0x3ee974de	0.45596975
56	0x3ebb6997	0.36603996
57	0x3ee9502d	0.45568982
58	0x40089d2e	2.1345935
59	0x3f830bac	1.0237937
60	0xc032f10f	-2.795963
61	0x3f6258bf	0.88416666
62	0x3de798ea	0.11308463
63	0xbf5c17f5	-0.85974056
64	0x3f088da8	0.5334115
65	0x3f620988	0.88295794
66	0xbea9fb88	-0.33199716
67	0x3f9cc378	1.2247152
68	0x3fc1e61d	1.514835
69	0xbe9b1b6a	-0.30294353
70	0x3f51ffb7	0.82030815
71	0xbf97850a	-1.1837475
72	0xbfba7584	-1.4567113
73	0xbf572dbe	-0.8405417
74	0x3e1f0fa4	0.1553331
75	0xbfbfccfa	-1.4984429
76	0x3edd16d7	0.43181488
77	0x3fb6bc3e	1.4276197
78	0x3fa07c88	1.2538004
79	0x3f70fd66	0.94136655
80	0xbfe44d00	-1.7835999
81	0xbf9bd5e7	-1.2174653
82	0xbfbd83ba	-1.4805825
83	0xbfb4a51b	-1.4112886
84	0x3f0731ba	0.5281025
85	0x3eb32f96	0.34997243
86	0x3f37fbc8	0.7186856
87	0xc01bc6e2	-2.4340138
88	0x3f32fdb6	0.6991838
89	0x3f745886	0.95447576
90	0xbeadd75d	-0.33953372
91	0xbed783f4	-0.4209286
92	0xbf9e2eb2	-1.2358
93	0x3eda3c57	0.4262416
94	0x3fb699e0	1.4265709
95	0xbef3e8dd	-0.47638598
96	0xbfd96bd2	-1.6986029
97	0xbf17af44	-0.5925181
98	0x401714a8	2.3606358
99	0xbf712746	-0.9420055
100	0x3fc74627	1.5568284
101	0xbf9f2cce	-1.2435548
102	0xbfefbc98	-1.8729429
103	0xc00c14e5	-2.1887753
104	0x3ea14fd2	0.3150621
105	0x401102e8	2.2658024
106	0xbf3073ec	-0.6892688
107	0x3dcee13d	0.101015545
108	0x3ff34700	1.9006042
109	0xbf4dc953	-0.8038532
110	0x3fa10bb1	1.2581693
111	0x3e7a0754	0.24416858
112	0x3f1d4fc9	0.6144987
113	0xbeacd145	-0.3375341
114	0xbe9a8c6d	-0.3018526
115	0x3f7deeef	0.9919271
116	0x3f3d5521	0.7395802
117	0x3f0d446f	0.55182546
118	0x3fb072fc	1.378509
119	0xbfed36bc	-1.8532329
120	0x3fac2f0e	1.345186
121	0x40073778	2.1127605
122	0xbeaa7878	-0.33295035
123	0x3fd17fcd	1.6367127
124	0xbf395856	-0.72400415
125	0x404268ac	3.0376387
126	0xc00f50d8	-2.2393093
127	0xbfa5ec40	-1.2962723
128	0x3fecd718	1.8503141
129	0xbfeea027	-1.8642625
130	0xbff32895	-1.899676
131	0xbfcf100f	-1.6176776
132	0xbfcb8b46	-1.5901878
133	0xbfda213c	-1.7041392
134	0xbeacf303	-0.33779153
135	0xbf9dbac2	-1.2322619
136	0xbf2be355	-0.67143756
137	0x401d3a03	2.4566658
138	0x3f8b4ecd	1.0883423
139	0x3fdf64ea	1.7452672
140	0x402b406f	2.6758077
141	0x3ed22594	0.41044295
142	0xbfffb0df	-1.9975852
143	0x3fd2a433	1.645636
144	0xc019d2a6	-2.403482
145	0x3f75b751	0.95982844
146	0xbfd778ee	-1.683378
147	0x3fc2ba9a	1.5213196
148	0x401f3922	2.487862
149	0x3f99e5d9	1.2023269
150	0xbfae5813	-1.3620628
151	0xbf5bcff4	-0.85864186
152	0xbf04d34b	-0.5188491
153	0x400a2b62	2.1588979
154	0xbff81345	-1.938088
155	0x3fd9ad3f	1.7005996
156	0x401e8195	2.476659
157	0x3f0a650b	0.5406043
158	0xbfe147ed	-1.7600075
159	0x3f513a69	0.8172975
160	0xc03422a0	-2.8146133
161	0xc00cd50c	-2.2005033
162	0x3f94c5b4	1.1622834
163	0x3f2d254a	0.67635024
164	0x3e5ec402	0.21754459
165	0xbff36e30	-1.9018002
166	0xbfda9806	-1.7077644
167	0xbf2b79ea	-0.669829
168	0x3fdcd285	1.7251745
169	0xc007b1fa	-2.1202378
170	0x402af618	2.6712704
171	0x3f804476	1.0020893
172	0x3fd1b2a2	1.638264
173	0xbfe19e17	-1.762637
174	0x3f1c6774	0.61095357
175	0x3fade579	1.3585654
176	0xbfdc83a5	-1.7227675
177	0x400071b9	2.006941
178	0xbfebd4e1	-1.842434
179	0xbbe43847	-0.0069647166
180	0xbf55b95d	-0.83485967
181	0xbfbbed0d	-1.4681717
182	0xbebf2bcd	-0.37338105
183	0x3c5bbcf2	0.013411747
184	0x3fe3a153	1.7783607
185	0xc002ad55	-2.0418293
186	0x3fae0b32	1.3597167
187	0x3e7db4bd	0.24775977
188	0xbf8ba2cf	-1.090906
189	0x3f7b772a	0.98228705
190	0x3f6b8aaa	0.9200846
191	0xc01fb31f	-2.4953077
192	0x3ef4da40	0.47822762
193	0x3fe0bbeb	1.7557348
194	0x40079250	2.1183052
195	0x3fa50327	1.2891587
196	0x400b2ef4	2.1747408
197	0xbf4690d1	-0.7756472
198	0xbf7a6cf1	-0.9782248
199	0xbfc5bc50	-1.5448093
200	0x3f8feb7c	1.1243739
201	0xc02b1bc8	-2.6735706
202	0xbf843e4c	-1.0331511
203	0x3fbc4f5b	1.4711717
204	0x3fc3b388	1.5289164
205	0x3f2ae407	0.6675419
206	0x4013f6cd	2.3119385
207	0x403c2fff	2.9404294
208	0x3f9776ef	1.1833171
209	0xbffe469e	-1.9865301
210	0xbf17ad2b	-0.5924861
211	0xbef737f5	-0.4828488
212	0x3ea04bf4	0.31307948
213	0xbf9ffde3	-1.2499355
214	0xbf438744	-0.76378274
215	0xbf1d076b	-0.61339444
216	0xbf94843b	-1.1602854
217	0xbf75c483	-0.9600298
218	0xc00b85ec	-2.180049
219	0xbe9d7a4c	-0.30757368
220	0xbe9c4ed0	-0.3052888
221	0x3fa1f44a	1.2652676
222	0xbef4d494	-0.47818434
223	0xbf923b00	-1.1424255
224	0xbf9d3446	-1.2281578
225	0x3fd0ed9b	1.6322511
226	0x3f23c5e0	0.6397381
227	0xbee3b66c	-0.44475114
228	0x3ff5daad	1.920736
229	0x3db3c08f	0.08776962
230	0x3d2b5ca8	0.04183641
231	0xbf2d6fa5	-0.6774848
232	0xc032a63b	-2.791396
233	0xbf227bc4	-0.634701
234	0xc005b75c	-2.0893164
235	0x402ff23c	2.7491598
236	0xc03cca8b	-2.9498622
237	0xc01c2a42	-2.4400792
238	0x40263221	2.5968096
239	0xc004368b	-2.065829
240	0xbe8a3c0e	-0.26998943
241	0x3e037983	0.12839322
242	0xbf40347e	-0.75080097
243	0xbe2ab22c	-0.1666953
244	0x3fc11ede	1.5087545
245	0xbf44013f	-0.765644
246	0xbf873294	-1.056231
247	0xbf06aa6c	-0.52603793
248	0xbec22494	-0.37918532
249	0x3f8a680c	1.0813003
250	0xbff4844e	-1.9102876
251	0xc00fe8ed	-2.2485917
252	0xc01e92b4	-2.477704
253	0x3eca39d0	0.39497232
254	0xbf98ae7f	-1.1928252
255	0x4036e2a8	2.857584

weight f4 [23, 8]
0	0xbe1ef958	-0.15524805
1	0xbee54625	-0.4478008
2	0xbf3c67d1	-0.7359591
3	0x3e916074	0.283939
4	0x3f4a5eef	0.7905111
5	0xbf270a05	-0.65249664
6	0x3e3a4f7c	0.18194383
7	0x3ed57c31	0.41696313
8	0xbf5b9b36	-0.8578371
9	0x3fa6fcaa	1.3045857
10	0xbf7e0174	-0.9922097
11	0x3fa00d70	1.2504101
12	0xbe8f25fe	-0.27958673
13	0x3f99d318	1.2017546
14	0xbec87a53	-0.39155826
15	0xbf6811e4	-0.906523
16	0x400ff629	2.2493994
17	0x3ecf9da5	0.4054996
18	0x3f2507c3	0.6446497
19	0xbf291508	-0.66047716
20	0x3f806441	1.0030595
21	0x3e9c6d8e	0.30552334
22	0x3e004835	0.12527545
23	0xbf3ba4fa	-0.7329861
24	0xbf23a810	-0.6392832
25	0x3fe83184	1.8140111
26	0xbf012fe3	-0.50463694
27	0xbec548f7	-0.3853223
28	0x3c554724	0.0130174495
29	0x3e9666d5	0.2937533
30	0x3bab48c5	0.0052271807
31	0x3eded417	0.43521187
32	0x3ff5f9b9	1.9216834
33	0x3e009c9f	0.12559746
34	0xbb1ea06f	-0.0024204513
35	0x3f852e5e	1.0404775
36	0xbf16dd5e	-0.5893153
37	0xbfa003ce	-1.2501161
38	0x3d2016c8	0.039084226
39	0x3f06ed33	0.5270569
40	0x3fb249a4	1.3928723
41	0xbe80afdb	-0.25134167
42	0x3e9825d3	0.29716358
43	0xbf824f80	-1.0180511
44	0xbd3af0d3	-0.045639824
45	0xbf149e8b	-0.5805442
46	0xbfd946f1	-1.6974775
47	0xbf881535	-1.0631472
48	0xbf1d55f5	-0.61459285
49	0x3f12447d	0.57135755
50	0xbe8632a5	-0.26210514
51	0xbe6b072c	-0.22951955
52	0xbe74a3bf	-0.23890589
53	0x4005d036	2.0908332
54	0xbd899da4	-0.06719521
55	0xbf0c99d5	-0.5492223
56	0xbf5627ad	-0.8365429
57	0xbf3eb1bd	-0.7448996
58	0xbf708da6	-0.9396614
59	0x3f79486f	0.9737615
60	0xbee071d3	-0.4383684
61	0x3c5cd90a	0.0134794805
62	0xbfede884	-1.8586583
63	0xbf3dd3ea	-0.7415148
64	0xbf9702dc	-1.1797748
65	0x3e7b859a	0.24562684
66	0xbfa25fbc	-1.2685466
67	0xbf96258b	-1.1730207
68	0xbf353505	-0.70784026
69	0xbf194162	-0.5986539
70	0xbfd7ebb5	-1.6868807
71	0xbe81efd2	-0.2537828
72	0xbc382ca8	-0.011241116
73	0x3f622eac	0.88352466
74	0x3f5d4ae4	0.864424
75	0x3fdb3a84	1.7127233
76	0x3ecfd601	0.4059296
77	0xbf045dfc	-0.5170591
78	0xbf59c5a4	-0.850672
79	0x3d367cf1	0.044552747
80	0x3ee23c2a	0.44186527
81	0xbf8b9c4b	-1.0907072
82	0xbfd2ba77	-1.6463155
83	0x3eae51d9	0.3404682
84	0xbe162dfc	-0.14665979
85	0xc0012a9a	-2.0182252
86	0x3f4cfae1	0.8007031
87	0xbf037f8a	-0.51366484
88	0x3f571f7b	0.8403241
89	0xbf675850	-0.9036913
90	0x3ea8b2aa	0.3294881
91	0x3ea3431f	0.31887147
92	0xbf1d3025	-0.6140159
93	0xbb82937c	-0.0039848667
94	0x3fdef9ff	1.7420043
95	0xbca22230	-0.019791692
96	0xbfb7d49d	-1.436176
97	0xbdea126d	-0.11429296
98	0x3f9f7b5e	1.2459524
99	0xbf8c8976	-1.097945
100	0x3e92ffd9	0.2871082
101	0x3eb96ba4	0.36214936
102	0x3f97ac6b	1.1849493
103	0x3f9aba4b	1.2088102
104	0xbf60adfc	-0.8776548
105	0x3f507e43	0.8144266
106	0x3f8d9cdb	1.1063493
107	0xc001b7ed	-2.026851
108	0x3eae2a5a	0.34016687
109	0xbfc413ee	-1.5318582
110	0xbeb62785	-0.35577026
111	0x3f03e9f5	0.51528865
112	0x3f3eea0b	0.7457587
113	0xbdf6a0bc	-0.120423764
114	0x3f817690	1.0114307
115	0x3f12b7bb	0.573116
116	0xbf6e2129	-0.9301935
117	0x3fae3c2d	1.3612114
118	0x3f2f8ccd	0.6857422
119	0xbfac5341	-1.3462907
120	0xbe0ffe14	-0.14061767
121	0x3f87b87f	1.0603179
122	0xbf3a8d89	-0.72872216
123	0x3e0fa944	0.14029413
124	0xbeb01824	-0.34393418
125	0xbf6e8359	-0.9316917
126	0x3f8ad295	1.0845515
127	0xbf413720	-0.7547474
128	0x3f464ab2	0.77457726
129	0xbe8addea	-0.27122432
130	0xbd65d0b9	-0.056107257
131	0x3fa24831	1.2678281
132	0x3fac7100	1.3471985
133	0x3e8ad432	0.27115017
134	0xbf172a35	-0.5904878
135	0x3f34e2ae	0.70658386
136	0x3ed98daf	0.42490909
137	0x3eab2c55	0.3343226
138	0xbf8e910f	-1.1138018
139	0xbfcc2ebe	-1.5951765
140	0xbf5e32e4	-0.867964
141	0xbfa251c6	-1.2681205
142	0xbfc18ce2	-1.5121119
143	0xc0031e82	-2.048737
144	0x3f7f6f09	0.997788
145	0xbe9fba11	-0.31196645
146	0xbf338ca1	-0.7013646
147	0xbfa08986	-1.2541969
148	0xbcc3f59c	-0.023920827
149	0x3fabac0d	1.3411881
150	0x3b37c1b4	0.002803904
151	0x3fbdc5ef	1.482603
152	0xbf0f3afc	-0.5594938
153	0xbe0e4e4e	-0.13897058
154	0x3e0f3718	0.1398586
155	0x3dd7f5ca	0.105449274
156	0xbe3fb9c0	-0.18723202
157	0xbdde43bb	-0.10852762
158	0x3e1a78ec	0.1508519
159	0x3fc3ff46	1.5312278
160	0x3f1d7642	0.6150857
161	0x3dad3162	0.08456685
162	0x3f436019	0.7631851
163	0xbdfd7d31	-0.12377394
164	0xbef0afd8	-0.47009158
165	0x3f0b8a30	0.5450773
166	0xbd9de9fb	-0.07710644
167	0x3f8eea6f	1.1165293
168	0x3ee4e6a2	0.4470721
169	0x3ff3fa93	1.9060844
170	0x3f16156d	0.58626443
171	0x3f3e82df	0.74418443
172	0xbf87c80e	-1.0607927
173	0x3ee10b3c	0.43953884
174	0x3fa2fcd4	1.2733407
175	0x3e815227	0.2525799
176	0x3ded27d4	0.11579862
177	0x3e8a1d49	0.26975468
178	0xbf951907	-1.1648263
179	0x3fa59bf6	1.293822
180	0x3fcac12d	1.5840203
181	0x3f56f030	0.8396025
182	0x3e8be785	0.27325073
183	0xbf33c612	-0.70224106

weight f4 [4, 8]
0	0x3edadc0e	0.42746013
1	0xbf15f0ac	-0.5857036
2	0x3f21ae80	0.6315689
3	0xbf9df067	-1.233899
4	0x3f5353dc	0.82549834
5	0xbf814cbd	-1.0101544
6	0x3f0a40d9	0.540052
7	0x3f39ecfa	0.7262722
8	0x3f2c7abc	0.6737478
9	0x3c31bde5	0.010848497
10	0xbf05d317	-0.5227522
11	0xbf37dcb6	-0.71821153
12	0x3ce05e6c	0.027388774
13	0x3d865ed7	0.06561058
14	0x3fbc36fe	1.4704282
15	0xbdac986d	-0.084275104
16	0x3e83f326	0.25771445
17	0xbd19e002	-0.037567146
18	0x3e6b2bd6	0.22965941
19	0xc00bc164	-2.1836786
20	0x3f489f49	0.7836805
21	0x3f2881ba	0.6582295
22	0xbe65c948	-0.22440064
23	0x3e66e953	0.22549944
24	0xbf7bb48c	-0.9832237
25	0xbdb9d21a	-0.09073277
26	0x3f14ab6e	0.5807408
27	0x3f9a29f7	1.2044057
28	0x3f893e02	1.0722048
29	0xbf4a39cb	-0.78994435
30	0x3dce4530	0.1007179
31	0xbf3ef8d0	-0.7459841

weight f4 [9, 8]
0	0x3ebd8dd5	0.37022272
1	0xbf9b584d	-1.2136322
2	0x3fa15f02	1.2607119
3	0x3f52f612	0.82406723
4	0x3d207dbf	0.03918242
5	0xbf80bd10	-1.0057697
6	0x3e4d9b9f	0.20078896
7	0xbf829516	-1.0201747
8	0xbebd2e87	-0.3694956
9	0x3ecafd0d	0.39646187
10	0xbeac5ca4	-0.3366443
11	0x3f9030ef	1.1264933
12	0xbf86f7c2	-1.054436
13	0xbf692c2b	-0.9108302
14	0x3ddf8911	0.10914815
15	0x3ea5995e	0.32343572
16	0xbfe76c37	-1.80799
17	0x3ed42341	0.41433147
18	0xc0015507	-2.0208147
19	0xbfb02044	-1.3759847
20	0xbe6033bd	-0.21894737
21	0xbe102b6a	-0.14079061
22	0xbe02ff55	-0.12792714
23	0xbf7b09b0	-0.98061657
24	0xbdd2f207	-0.10300069
25	0xbe9865a9	-0.2976506
26	0xbf1f15c9	-0.62142617
27	0xbd3f143e	-0.046650164
28	0xbf2950c0	-0.6613884
29	0x3d9af08f	0.07565414
30	0xbf2416ae	-0.64097106
31	0x3ea20f9b	0.3165253
32	0xbe9e47b8	-0.30914092
33	0x3ef7fe52	0.48436219
34	0x3cd894a5	0.026438067
35	0xbe1eb95f	-0.15500401
36	0xbe064083	-0.13110547
37	0x3e1693e7	0.14704858
38	0x3ec1f59f	0.37882707
39	0xbf1682ea	-0.5879351
40	0xbeb99d72	-0.36252934
41	0x3f4e43aa	0.80572
42	0xbf9ede0a	-1.2411511
43	0xbd7a215d	-0.061066974
44	0x3f5b1f52	0.85594666
45	0x3bd7bc1a	0.0065837028
46	0xbe8612dc	-0.26186264
47	0x3f28aece	0.6589173
48	0x3e4bd7f1	0.19906594
49	0xbf057af7	-0.52140754
50	0x3f12669f	0.5718784
51	0xbe810f0b	-0.2520679
52	0x3e4599b0	0.19296908
53	0x3f80ce17	1.0062894
54	0xbf424107	-0.75880474
55	0xbeb718d8	-0.35761142
56	0xbf69bb5b	-0.91301507
57	0xbf3c372c	-0.73521686
58	0x3e51d94b	0.20493047
59	0xbda331a0	-0.079684496
60	0xbe545560	-0.20735693
61	0xbe5f529e	-0.2180886
62	0x3f04f50b	0.51936406
63	0x3f23d0f7	0.6399073
64	0xbef5341f	-0.47891328
65	0xbe42c298	-0.19019544
66	0x3f96fe61	1.179638
67	0x3f0774fa	0.5291287
68	0xbe43bbba	-0.19114581
69	0x3e1504c3	0.14552598
70	0xbea1c818	-0.31597972
71	0x3e90b535	0.2826325

weight f4 [2, 4]
0	0xbbac1e24	-0.0052526165
1	0xbe5e4953	-0.21707658
2	0xbe7067a7	-0.2347704
3	0x3d0a92df	0.033831473
4	0x3d09f345	0.033679266
5	0x3e6f3d55	0.2336324
6	0x3e1f780f	0.15573142
7	0xbbf00f5a	-0.007326049

weight f4 [4, 2]
0	0xbd2f7672	-0.042837568
1	0x3e1ceb35	0.153241
2	0xbeb5cc97	-0.35507652
3	0xbf29e0c8	-0.66358614
4	0xbd03f02f	-0.03221148
5	0xbca6fde6	-0.02038474
6	0xbefb3fa6	-0.49071997
7	0xbf39d4ea	-0.72590506

weight f4 [128, 24]
0	0xbe88e2b8	-0.26735473
1	0xbe9374f1	-0.28800157
2	0xbea6dd49	-0.32590702
3	0xbea40f29	-0.32042816
4	0xbdcc5cc6	-0.09978633
5	0xbd3422ab	-0.043978374
6	0xbe94e931	-0.2908416
7	0xbeb3f010	-0.3514409
8	0xbf2f067e	-0.6836928
9	0x3f253785	0.6453784
10	0xbe8a9859	-0.27069357
11	0x3e605cdc	0.21910423
12	0x3e1dd17b	0.15411942
13	0x3f208768	0.62706614
14	0xbeeb2f95	-0.4593474
15	0xbd52b1a5	-0.051438946
16	0xbe2627a7	-0.16226064
17	0xbdb2aef1	-0.08724774
18	0x3d2c08da	0.04200063
19	0xbc21a0b7	-0.009864978
20	0x3de57e3c	0.11205718
21	0x3dd6b1f0	0.10483158
22	0xbda0d67e	-0.07853411
23	0x3c240d62	0.010012956
24	0xbe7c5647	-0.24642287
25	0xbe9cb6f7	-0.3060834
26	0x3e3312b0	0.17487597
27	0x3e658f27	0.2241789
28	0xbef86172	-0.48511845
29	0x3e86a023	0.2629405
30	0xbeee7016	-0.4656989
31	0xbebb6f69	-0.36608437
32	0xbd399f2d	-0.045317817
33	0x3dc42176	0.09576695
34	0x3debf7df	0.11521887
35	0xbe7a8b47	-0.24467193
36	0x3c0a4b9a	0.008440876
37	0xbd5c74d6	-0.05382236
38	0x3ceb2d55	0.02870814
39	0xbe272fb7	-0.16326796
40	0xbe6119de	-0.21982524
41	0x3f3e628c	0.7436912
42	0x3e953068	0.29138494
43	0xbe86e7df	-0.2634878
44	0x3e82533e	0.25454134
45	0xbc7db6c0	-0.0154854655
46	0x3ecb52ce	0.39711612
47	0xbebed4c2	-0.37271696
48	0x3e8ee90c	0.27912176
49	0x3e9199c8	0.28437638
50	0x3df243ee	0.11829363
51	0x3e918345	0.28420463
52	0x3da4aa36	0.08040278
53	0x3db24c25	0.0870593
54	0xbe1126c6	-0.14174947
55	0x3d3c4709	0.045966182
56	0xbd8a48ed	-0.06752191
57	0xbe9ab574	-0.30216563
58	0xbd1e91fc	-0.03871344
59	0xbeaa7aa0	-0.3329668
60	0xbdd27859	-0.10276861
61	0xbd8a95ba	-0.06766839
62	0x3e00b61c	0.12569469
63	0xbe0cd9c7	-0.1375495
64	0xbd8975e2	-0.067119375
65	0xbe4e2469	-0.20131077
66	0xbe50ab0f	-0.20377754
67	0xbd076c69	-0.033062372
68	0x3d15b0a5	0.036545414
69	0x3c141888	0.009039052
70	0x3d0d1578	0.034444302
71	0xbdfea437	-0.12433665
72	0xbdf5ec47	-0.12007957
73	0x3e525cbf	0.20543192
74	0xbe4b87c0	-0.19876003
75	0x3d9076b6	0.07053892
76	0x3d2aa792	0.041663714
77	0xbe3bd178	-0.18341625
78	0xbd633cd9	-0.05547795
79	0xbdfd973f	-0.123823635
80	0x3ac478f2	0.0014989658
81	0x3eb1843f	0.34671208
82	0xbd23a8ad	-0.039955784
83	0xbdb2666b	-0.08710941
84	0xbd96f5c3	-0.07371094
85	0x3e811f40	0.25219154
86	0xbf042d37	-0.5163149
87	0x3e91ddfa	0.28489667
88	0x3cdd8ed3	0.027045643
89	0xbeaba3ec	-0.335235
90	0x3db2e0a0	0.0873425
91	0xbefe136f	-0.49624202
92	0x3d02ba10	0.031915724
93	0x3d2afcaa	0.041744865
94	0xbed9a38c	-0.4250759
95	0xbeac73ee	-0.33682197
96	0x3d07bbbb	0.033138018
97	0x3e0e54ea	0.1389958
98	0xbd2c34b2	-0.04204244
99	0x3ea95363	0.33071432
100	0xbd6ca13f	-0.057770964
101	0xbe884678	-0.26616263
102	0xbe812f35	-0.2523133
103	0xbdab503c	-0.08364913
104	0x3c86675d	0.01640671
105	0xbe5b311a	-0.2140545
106	0x3db2fd46	0.08739714
107	0xbe4d07b1	-0.20022465
108	0xbd8af4f6	-0.06785004
109	0xbe9a87fc	-0.30181873
110	0x3e355324	0.17707497
111	0xbe062a91	-0.13102175
112	0x3e1a484a	0.15066639
113	0xbdf8e836	-0.12153666
114	0xbd14aed5	-0.036299545
115	0xbe40d61d	-0.18831678
116	0xbb2f2adf	-0.0026728434
117	0x3cbd745a	0.02312677
118	0x3d6ee10c	0.05832009
119	0x3da5305a	0.08065863
120	0xbd823716	-0.06358163
121	0xbd7f29e3	-0.062295806
122	0x3b8f569a	0.0043743374
123	0x3cacbc77	0.02108596
124	0x3e1ada97	0.15122448
125	0xbe4bf10d	-0.19916172
126	0xbcd85381	-0.026407005
127	0xbe1c26b2	-0.15249136
128	0xbe6e1dd6	-0.23253569
129	0xbe87ded4	-0.26537192
130	0xbebba6f6	-0.3665082
131	0xbd67459c	-0.05646287
132	0x3e3b9e4d	0.18322106
133	0xbe41008c	-0.18847865
134	0x3e91bd6a	0.28464824
135	0xbe9cac3f	-0.30600163
136	0xbe7fcd3f	-0.24980639
137	0xbf630008	-0.8867192
138	0x3e41d0c7	0.18927298
139	0xbcc622d5	-0.024186531
140	0x3e300e40	0.17192936
141	0x3e816707	0.25273916
142	0xbe318cc2	-0.17338851
143	0xbedaf760	-0.42766857
144	0x3da40189	0.08008105
145	0xbc521a4a	-0.012823651
146	0xbe83fa84	-0.25777066
147	0xbe653042	-0.2238169
148	0x3d5284b9	0.051396105
149	0xbd869b67	-0.065726094
150	0xbed139a0	-0.40864277
151	0xbdb92ba0	-0.09041524
152	0xbe3b7be1	-0.18308975
153	0x3e3c202f	0.18371652
154	0xbda32312	-0.079656735
155	0x3e29f6da	0.16598073
156	0xbbd44728	-0.006478209
157	0x3e058114	0.1303752
158	0xbeb180ea	-0.34668666
159	0x3e290006	0.16503915
160	0x3e726e95	0.23674996
161	0xbe1c0a06	-0.15238199
162	0xbec4c81f	-0.3843393
163	0xbee6dbc0	-0.4508953
164	0x3e173ac1	0.14768507
165	0x3dd13770	0.10215652
166	0xbe287c8b	-0.1645376
167	0x3ed76083	0.4206582
168	0x3d6e07b5	0.05811282
169	0x3c9efb25	0.019406864
170	0xbe6cc9eb	-0.231239
171	0x3db72d9f	0.089442484
172	0x3f084852	0.5323535
173	0xbe315883	-0.17318921
174	0xbe8ca890	-0.27472353
175	0xbbd6f025	-0.006559389
176	0xbe016bdb	-0.126388
177	0x3e01aead	0.1266429
178	0x3e1dca85	0.15409286
179	0x3c2e7b81	0.010649563
180	0x3e42d0bd	0.1902494
181	0x3d817285	0.06320671
182	0x3e033481	0.12812997
183	0xbd32531a	-0.043536283
184	0x3d85597e	0.0651121
185	0x3ebd57cd	0.3698105
186	0xbe0e7b2f	-0.13914178
187	0xbccae4c5	-0.024767289
188	0xbf12638a	-0.57183135
189	0x3e98cea1	0.29845145
190	0x3ed1a907	0.4094927
191	0x3e8d8899	0.27643278
192	0x3eb12fa4	0.3460666
193	0x3e8544ab	0.26028952
194	0x3d9de91a	0.07710476
195	0xbcfa41b3	-0.030548906
196	0xbdbb92eb	-0.09158882
197	0xbd8938bd	-0.06700275
198	0xbe44c3ab	-0.19215266
199	0xbe4f87dd	-0.20266671
200	0x3e044e7a	0.12920561
201	0xbd6c012a	-0.057618298
202	0xbe5d3baa	-0.21604791
203	0x3e601e1e	0.21886489
204	0xbdcec9cd	-0.10097084
205	0xbe083af6	-0.13303742
206	0xbdd868d0	-0.105668664
207	0xbd379b68	-0.04482594
208	0x3e1bb928	0.1520735
209	0xbd2c06dc	-0.04199873
210	0x3e7b4078	0.24536312
211	0x3e9d3d53	0.3071085
212	0xbe39278b	-0.1808149
213	0x3e6a2482	0.22865489
214	0xbd4baee9	-0.049727354
215	0xbe4b3eaa	-0.19848123
216	0x3e5c0a98	0.21488416
217	0x3da95a03	0.082691215
218	0xbd727998	-0.059197992
219	0x3eab3bd8	0.33444095
220	0xbea08f35	-0.31359258
221	0x3d6522f8	0.055941552
222	0x3deb3604	0.11484912
223	0x3e0afb4f	0.13572429
224	0x3e8673bb	0.2626017
225	0x3d00bf40	0.03143239
226	0x3e5f51d5	0.2180856
227	0xbe6f251e	-0.23354003
228	0xbece0d26	-0.40244406
229	0xbb536310	-0.003225509
230	0x3e007b04	0.12546927
231	0x3cf446e8	0.029818967
232	0x3a8bd5dd	0.0010668595
233	0x3e255cf5	0.16148742
234	0xbc9dee88	-0.01927878
235	0xbcf2613f	-0.029587386
236	0xbdec7ef1	-0.1154765
237	0xbd1cac48	-0.038250238
238	0x39ab7009	0.00032699134
239	0x3e3d6498	0.18495405
240	0xbe240f4e	-0.16021463
241	0x3df969ab	0.12178358
242	0xbdabcb77	-0.08388417
243	0x3e320e9f	0.1738839
244	0x3d6dcafc	0.05805491
245	0xbee38d6e	-0.4444384
246	0xbe892501	-0.26786044
247	0xbe4e85fd	-0.201683
248	0xbd66e069	-0.056366358
249	0xbd7d0f8c	-0.061782405
250	0xbe286375	-0.1644419
251	0xbe7c808b	-0.2465841
252	0x3dc0e714	0.09419075
253	0xbe27aa69	-0.163736
254	0xbdd46b3b	-0.10372015
255	0xbf0cb4bb	-0.5496327

bias f4 [128]
0	0xbf46b0dd	-0.7761362
1	0x3ca9fe96	0.020751279
2	0x3e8f9588	0.2804377
3	0xbe3a7330	-0.18208003
4	0x3e900165	0.28126064
5	0xbd744fc3	-0.05964638
6	0xbe0a34d1	-0.1349671
7	0xbea5baf6	-0.32369202
8	0x3e8abade	0.27095693
9	0x3e7f6370	0.24940276
10	0xb9c4462f	-0.00037436324
11	0xbea4ddfe	-0.32200617
12	0xbe38b3e3	-0.18037371
13	0x3e8fd2a8	0.28090405
14	0x3e9103e9	0.28323296
15	0x3ecb2ef2	0.39684254
16	0xbf0545ea	-0.52059805
17	0xbf0f944d	-0.56085664
18	0x3e4e8b8a	0.20170417
19	0x3e935aa7	0.287801
20	0xbd4bba97	-0.049738493
21	0xbc19c060	-0.009384245
22	0xbe5eed6c	-0.21770257
23	0x3eb01811	0.3439336
24	0xbe95764c	-0.29191816
25	0x3e855196	0.26038808
26	0xbe656a63	-0.22403865
27	0xbe8c0c1a	-0.27352983
28	0xbec16599	-0.37772825
29	0xbd2b6de3	-0.041852843
30	0xbd12769a	-0.03575764
31	0xbe406ae7	-0.1879078
32	0x3d9f47b9	0.07777352
33	0xbe4e674e	-0.20156595
34	0x3e9c9e49	0.30589512
35	0xbe399ec5	-0.18126972
36	0x3e9bae74	0.30406535
37	0xbea5fac2	-0.32417876
38	0xbeabae90	-0.33531618
39	0x3ea639eb	0.32466063
40	0x3e85150a	0.25992614
41	0x3da45d04	0.08025554
42	0xbe2b95bf	-0.16756342
43	0x3d3764d9	0.04477391
44	0xbe64bcbb	-0.2233762
45	0x3e1da27d	0.15394016
46	0xbe565142	-0.20929435
47	0x3e926fc0	0.28600883
48	0x3e1256a7	0.14290868
49	0x3dab021c	0.08350012
50	0x3e41a9fe	0.18912503
51	0xbd68fb99	-0.056880567
52	0x3dc60428	0.096687615
53	0xbdd1f9f5	-0.10252754
54	0xbe3eb996	-0.18625483
55	0xbf2cc4f3	-0.6748802
56	0xbdebf3ea	-0.11521132
57	0xbe0b7f39	-0.1362275
58	0x3dc7c070	0.097535014
59	0x3c46cadc	0.012133326
60	0x3e8027c7	0.25030348
61	0xbe869837	-0.26288006
62	0x3d907da3	0.07055213
63	0xbe2c714e	-0.16840097
64	0x3e99859e	0.29984754
65	0xbcacb36b	-0.021081647
66	0xbe980d9f	-0.29697892
67	0x3e5ff126	0.21869335
68	0xbe1ca438	-0.1529702
69	0xbe0ee80f	-0.13955711
70	0xbf407dc8	-0.75191927
71	0xbf4c950b	-0.7991492
72	0x3d772728	0.060340077
73	0xbe7e1c64	-0.24815518
74	0xbf48dcba	-0.784618
75	0xbe802518	-0.250283
76	0x3ea3cf15	0.3199393
77	0xbd234f6e	-0.039870672
78	0xbe2e53bf	-0.17024134
79	0x3d7d0014	0.061767653
80	0x3ea0d511	0.31412557
81	0x3edae9a7	0.42756388
82	0x3e4fb55a	0.20284024
83	0x3e1b059c	0.15138859
84	0xbe927302	-0.2860337
85	0x3eb319a5	0.34980503
86	0x3eadfb90	0.3398099
87	0xbea65535	-0.32486883
88	0x3e1d24e6	0.15346107
89	0xbebfe223	-0.37477216
90	0x3e8b5ffe	0.27221674
91	0xbe0d9ee1	-0.13830139
92	0x3e03ce51	0.12871672
93	0xbf21fada	-0.63273394
94	0x3de52ffe	0.111907944
95	0x3e109350	0.14118695
96	0xbcc9a8c4	-0.024616607
97	0x3e526dd7	0.20549713
98	0xbe7550b5	-0.23956569
99	0x3dd86072	0.105652705
100	0x3dcbcfcd	0.09951744
101	0xbda9c26a	-0.08289035
102	0x3e502f01	0.2033043
103	0xbdf02564	-0.11725882
104	0xbe450a55	-0.19242223
105	0x3e07ba12	0.13254574
106	0xbe64f99e	-0.22360846
107	0x3e7729be	0.24137017
108	0x3e36fe4c	0.17870444
109	0xbe7fbe13	-0.24974851
110	0xbe78ba94	-0.24289924
111	0x3e14eb23	0.14542823
112	0xbeafa3b2	-0.34304577
113	0xbe89e492	-0.26932198
114	0x3ec3a056	0.38208264
115	0x3e4942d1	0.19654395
116	0x3d766de1	0.060163382
117	0xbed05d72	-0.40696293
118	0xbddbb695	-0.10728184
119	0xbe860e13	-0.26182613
120	0x3e4215e7	0.18953668
121	0x3e7c6d8c	0.24651164
122	0xbf3c81a2	-0.73635304
123	0x3cd95d25	0.026533673
124	0x3e5eaf1e	0.2174649
125	0x3d04de25	0.032438416
126	0x3eb0b743	0.34514818
127	0xbde5de44	-0.112240344
