checkpoint/best_model.pt (torch, 615083 bytes, 23 tensors)

weight f4 [128, 32]
00000000: d8ba 85be 912c 80be 6dd1 3dbe 3c0e fdbd
00000010: dc0b 94be 02ed 283e 0fac 1b3d 4dc8 e2bd
00000020: b66a 9a3d 2925 4ebe 2437 57bc 950a a2be
00000030: cf4a 24be 3b6c 103e 6588 2b3e 91ae 2dbe
00000040: 4900 a13d e1b8 ae3d 34c1 7dbc 187b 46be
00000050: 9ea9 533e 6f34 47bc 5fda 0b3e 9602 673e
00000060: d2bb 2abe 65b1 133e f156 ecbd ea5b ed3d
00000070: 8a46 92bc e0b3 9abd 76f5 82bd b79f 23bd
00000080: 5271 a93e 1bac 8b3e e6a9 f33d 4a68 e53e
00000090: 9431 a5bc b9da e1bd 649b 863e e1fb 80ba
000000a0: 8b47 c6bd e4b3 f43d 5e7c 5a3e d001 353e
000000b0: ae71 703d b1a0 643e 2d60 843e 042d 193e
000000c0: 9521 d4bc 0f4c bb3d f725 d53c 7b47 b1bd
000000d0: 7c79 ed3d 841a 01be 53c2 a1bd 255c 57bd
000000e0: 03d6 a33d a123 463e 4c7a 2cbe 143a 44be
000000f0: e466 ef3d 8d9f 76bd ef16 83bd 27e4 0e3c
00000100: 5a14 8c3d f1c1 9f3d 98e8 0abe 4ad8 cebb
00000110: ce17 b5bd f515 8cbd b942 d3bd 3e8a 0abe
00000120: 1b65 09be 31c6 a9bd a6c2 39be b633 f63d
00000130: 978c 9e3c 0750 1b3e e045 0ebd 1ec9 8f3a
00000140: 666d 9abd 1b3e 273e 44cb 293c aed2 183e
00000150: 0e74 ec3c 6bc8 d83d deab c13c 1e3e febd
00000160: 44c6 05bd e73d d9bd 34a1 cb3c bfe9 853e
00000170: cffb 7ebd 8864 ee3b 5b63 443e acb8 523c
00000180: 1c48 66be c9a0 8b3d 7f63 033d e784 83be
00000190: 335e 0cbd b6e8 c5bd f4ee 95bd befd 873d
000001a0: 3356 2d3d c05a 3e3e 5366 5e3e 9c58 ddbd
000001b0: 9188 643d b8d0 313e c485 6fbe 2760 073e
000001c0: 539d ba3d be77 91b9 32c2 d43c fd6e bb3d
000001d0: ac9d 193e 7934 20be c2bb 0a3d bb42 2b3e
000001e0: ff27 f13d e0d9 dabd 01b7 21be a4fc b73c
000001f0: bc1d ddbd ed0b b6bd 6d73 bbbd 3b25 643e
00000200: 5ea4 073e 3554 3f3e ddd4 e83e ab50 f8bd
00000210: 57ab c03e 47a4 8a3e 4507 993e 7063 8ebc
00000220: 1233 183d 97c2 d3bd 15ca 2dbe ee5b b9be
00000230: ed41 0a3e 7876 34be 629f a33d f453 513e
00000240: 9be7 e9bc 0bf3 0a3e b3a4 0dbe 247e df3d
00000250: 6586 84bc 967f 1dbe 8d32 23be feda 7f3d
00000260: 8476 fc3d 591e 32be 2d50 b3bd c2fe 0abd
00000270: ce87 573d a459 043e 0d0a 9abe 26d0 873e
00000280: 3fbd e3bd b0df 1bbe 296d f7bc 7f21 683d
00000290: 71c9 2e3e fa48 313d 8d54 63bd 70b5 44bd
000002a0: d76d 733d 8122 45bd 6a6f a7bd 611d d73c
000002b0: 9458 8cbd 1326 3b3e 4d2f 043e 50e5 3dbd
000002c0: 1ef3 3e3d 84dd 80be 8828 293c 692f 8f3d
000002d0: eec0 0dbe d171 34be d0c8 553d 019e 11bd
000002e0: 3ee8 453e 2435 083d 4c90 a03a e45e 03be
000002f0: 6833 283e 3fa5 15be 6842 063e 680a 953d
00000300: 15fe 65be fae3 073e c517 033e 53f8 093e
00000310: ad86 073e d03a 693e 18bb 30be 6455 c8bd
00000320: f2ff 5e3e 613f 17be 3455 8f3e 7915 b73d
00000330: e678 a5bb d640 38bd c462 853e 183f 13bd
00000340: ccd2 f7bd c72f 183e 41c0 3dbe 5ec1 e3bd
00000350: 001c 02be 81a4 733d 582a 3c3e f72d d13c
00000360: 8f6f 07be 9f5e 33be c490 37be 39b7 7dbd
00000370: cdd6 503d 812e 23be 3385 313e 0b70 bb3c
00000380: bd1d 5e3d 8e4f 4dbd b10b 2cbe a48e 28be
00000390: 1ac3 a43e 4683 d33d 5efe 2d3e ebc1 08be
000003a0: de64 89be 15fc f33d 9235 163e f501 23bd
000003b0: 0107 b13c 6f55 20bd 1c3a a33b 1be4 23bb
000003c0: 8d06 013e 356f 683d 3e78 353d 5bf8 983c
000003d0: ae2c 4fbd 6043 fcbd 4dd9 b63d 7613 123e
000003e0: a970 bb3d bb60 0d3e d93b 29be a34c 593e
000003f0: 9a0b 3dbe 4405 b03d 27fb aebd 5900 5439
-0.26119113 -0.25034 -0.18536921 -0.123562306 -0.28915298 0.16496661 0.038005885 -0.110733606
0.07539885 -0.20131363 -0.013135705 -0.31648698 -0.16044162 0.14103787 0.16751249 -0.16961123
0.078613825 0.085313566 -0.015487958 -0.19382894 0.20670173 -0.012158497 0.1365752 0.2255958
-0.1667321 0.1442314 -0.1154002 0.11589797 -0.017855901 -0.0755384 -0.06394474 -0.039947238
0.3309427 0.27279744 0.1189764 0.4480613 -0.020165242 -0.11028046 0.2629043 -0.0009840691
-0.096816145 0.11948374 0.21336505 0.17676473 0.058702163 0.22326924 0.25854626 0.14958578
-0.02589492 0.091453664 0.02601908 -0.08656212 0.11595437 -0.12607771 -0.078983925 -0.05257811
0.07999804 0.19349529 -0.16843528 -0.1916278 0.11689547 -0.060210753 -0.064008586 0.008721388
0.06839819 0.07800663 -0.1356529 -0.0063124048 -0.08842431 -0.068401255 -0.10315461 -0.13529298
-0.13417475 -0.08289755 -0.18140659 0.12021582 0.019354148 0.15167247 -0.034734607 0.0010969972
-0.07540397 0.16332285 0.010363404 0.14924118 0.028863933 0.10585102 0.023641523 -0.12414192
-0.032659784 -0.1060751 0.024857141 0.26154897 -0.062251862 0.007275168 0.19178526 0.012861412
-0.22488445 0.06817777 0.03207731 -0.25687334 -0.034269523 -0.09663527 -0.07320967 0.06640194
0.042318534 0.18589306 0.21718721 -0.108079165 0.055794302 0.17364776 -0.23390871 0.13220273
0.091120385 -0.0002774577 0.025971506 0.09152029 0.15001553 -0.15645017 0.033870466 0.16724674
0.11775207 -0.106860876 -0.15792467 0.022459336 -0.10796687 -0.088889934 -0.09152875 0.22279827
0.13246295 0.18684466 0.45474902 -0.12124761 0.37630722 0.2707846 0.2988836 -0.0173814
0.03715808 -0.103398494 -0.1697162 -0.3620295 0.13501711 -0.17623317 0.07989384 0.20442182
-0.02855282 0.13569276 -0.13832359 0.10912731 -0.016177366 -0.15380701 -0.15937252 0.062464707
0.123272926 -0.17394389 -0.08755527 -0.033934362 0.052619748 0.1292482 -0.30085793 0.26525992
-0.1112008 -0.15222049 -0.030203419 0.05667257 0.17069031 0.043282486 -0.055500556 -0.048024595
0.059430923 -0.04812861 -0.081755474 0.026259126 -0.068528324 0.18276243 0.12908669 -0.046361268
0.046618573 -0.25169003 0.010324605 0.06991465 -0.13843128 -0.17621543 0.052193463 -0.035551075
0.19326875 0.033253804 0.0012250035 -0.12829167 0.1642586 -0.14613818 0.1311127 0.072773755
-0.22460206 0.1327056 0.12802036 0.13473634 0.13234968 0.22776341 -0.1725887 -0.09781912
0.21777323 -0.14770271 0.27994692 0.089396425 -0.0050498126 -0.044983707 0.26051915 -0.035948843
-0.12100753 0.14861976 -0.1853037 -0.11120866 -0.12705994 0.059483055 0.18375528 0.025534613
-0.1322615 -0.17516564 -0.17926317 -0.061942313 0.0509861 -0.15935709 0.17335968 0.022880575
0.05422758 -0.050124697 -0.16801335 -0.16460663 0.321801 0.10327773 0.16991565 -0.13355224
-0.26834768 0.11913315 0.14668873 -0.03979679 0.021609785 -0.039143976 0.0049812924 -0.0025007788
0.12600155 0.05674668 0.044304125 0.018673113 -0.05057972 -0.12317538 0.089281656 0.14265236
0.091523476 0.13806431 -0.16526736 0.21220641 -0.18461457 0.08594754 -0.08543997 0.00020218025

bias f4 [128]
00000000: eac3 603d 40eb 233e a316 9cbc 0e09 15be
00000010: 2ac0 c9bb 4041 86be 105c 3a3c 040a 223e
00000020: d99c 373e 89cf 8d3d 14fe 4d3e 76e3 1bbe
00000030: c527 363d 9d06 463d a747 16be ad45 4f3b
00000040: b9a9 ec3d b218 123e 7151 073e 61c6 6d3e
00000050: bc07 123e 9803 6fbe 31d8 02bd f44b a23c
00000060: 714e 91bd c514 953e 6aa9 a83b 81c9 5bbe
00000070: 1bf2 07bd 56c6 dcbb b652 e43d d961 6e3e
00000080: 557a dd3c e373 a53e 05f8 f3bd 16f1 01be
00000090: dbe7 863e 316f 86be 7826 46be 8083 1ebe
000000a0: 0a37 513d 6070 0ebd ea0c 04be afb5 94be
000000b0: e41c 3abb fb17 0d3e 7cc8 09be 9993 2bbe
000000c0: 3558 dfbd a051 1fbc 9ccd 033e 5029 de3d
000000d0: e75e 1c3e 82c6 d33d 3422 283c 9dd7 44bd
000000e0: d00b 67be 51e3 f33c 609c 5a3e d4f4 4abe
000000f0: 2e1d 523d bab4 debd 93ed 8c3e 3d87 fdbd
00000100: 3e31 f8bc 1cb4 1d3e 7b43 3dbd e89d 36be
00000110: dc9d 063e 7c10 fcbd 0ade 693e a4d4 2c3e
00000120: a56b 90bd e6d6 9bbe 1843 f5bd 654e 953d
00000130: b232 dd3d 6fa5 7ebd b186 30be d7b1 0d3e
00000140: dc87 873c 5322 d53d 398e 2fbe ee6c 1c3e
00000150: 972b c0bd bd6f a43d 2076 033e 1a6f 393e
00000160: bd2b 843e 1020 b13d e6c4 66bd 5897 333e
00000170: 5f15 2b3e 56a0 2cbe 818c 353e b1f8 913e
00000180: 9634 273d bff6 863e db62 3c3c f69f 86bd
00000190: 38e2 c7bd 2c51 a3bd a5b4 a4bd 3729 19be
000001a0: 14a9 4ebe 2f88 603d 231e a4bc bcb5 223e
000001b0: e9cf 3dbe c3f1 12be 0293 6fbe 708e 5cbd
000001c0: 22dc 9bbd b0bc ccbd acc3 53be 763a e53d
000001d0: 7395 6b3e 7c28 333d 464b a23d 97eb cebd
000001e0: 5989 1abe cd7f 1b3e 5328 713e be8d 14be
000001f0: b3d0 4bbe 94c7 3abe 494e 553c e393 fe3d
0.05487434 0.1600771 -0.019053763 -0.14554235 -0.006156941 -0.26221657 0.0113744885 0.15824133
0.17930926 0.0692435 0.20116454 -0.15223488 0.04447152 0.04834615 -0.1467577 0.0031627223
0.115558095 0.14267233 0.13214661 0.23220207 0.14260763 -0.23341215 -0.031944457 0.019811608
-0.0709504 0.29117408 0.005147149 -0.21463586 -0.033189874 -0.0067375107 0.11148588 0.23279513
0.027035872 0.32314977 -0.1191254 -0.12689623 0.26348767 -0.26256707 -0.19350612 -0.15479851
0.05107788 -0.034775138 -0.12895551 -0.29044864 -0.0028398568 0.13778679 -0.13455385 -0.16755523
-0.10905496 -0.009724051 0.12871403 0.108477235 0.15270577 0.10340597 0.010262061 -0.048057187
-0.225631 0.029771479 0.21348715 -0.19819957 0.05129736 -0.108743146 0.27525005 -0.1237931
-0.030296918 0.15400738 -0.046206933 -0.17833674 0.13146156 -0.12307832 0.22838607 0.16877991
-0.070517816 -0.30437392 -0.11975688 0.07290343 0.10800685 -0.06216949 -0.1723888 0.13837372
0.016544275 0.104069375 -0.17144097 0.15275928 -0.09383314 0.08029125 0.1283803 0.18108788
0.2581462 0.086486936 -0.05634012 0.17538202 0.16707371 -0.16858038 0.17729379 0.2851005
0.040821634 0.26360127 0.011498178 -0.06573479 -0.09759945 -0.07974467 -0.08042268 -0.14957128
-0.20181686 0.054817375 -0.020033902 0.15889639 -0.18536343 -0.14350037 -0.23395923 -0.053846776
-0.076103464 -0.09996927 -0.20680112 0.11192791 0.23006229 0.04373978 0.079245135 -0.10103529
-0.15091456 0.15185471 0.23550539 -0.14507195 -0.19903831 -0.18240196 0.013019153 0.12430551

weight f4 [64, 128]
00000000: 6c8f 46be 2870 63be 427a 07be bf5d 1abe
00000010: 9150 8fbe 3a7d 05be 0bf4 a0be 6347 96be
00000020: 3ba7 73be 87d5 88be 435f 2abe d028 44be
00000030: e0a7 a8be 2bab 4bbe 565f 30be a518 8cbe
00000040: 6f08 94be f887 98be 2ba0 58be b0e6 7fbe
00000050: bd20 80be b4be 2a3e 15ac 82be 56b0 7fbe
00000060: 95a8 59be 4549 83be 275e 83be 355a e03d
00000070: 1d3a c13b 96f0 3abe c959 5fbe 38d0 93be
00000080: 3949 a4be 5c8d b1be e5e8 2fbe bfce 79be
00000090: 503c 68be c980 853e 120f d0bd 60f8 34be
000000a0: afc4 3bbe 4057 27be a0ef 74be e220 ac3c
000000b0: f4d6 8abe fc3f 51be e988 87be 25f3 b2bd
000000c0: 3fdf 31be ccad 6dbe 32d3 68be 8da7 d9bd
000000d0: 4c2b 22be c08b 57be 2586 83be 631f 5ebe
000000e0: 85f1 2bbe 2cc6 d3bd da39 6bbe 0c11 59be
000000f0: b44a 6dbe 81d7 90be effc 7abe 1c05 77be
00000100: 21da f7bd 092e 65be 53fa 94be bd63 c2bd
00000110: bd32 8abe b795 cebd fbd7 a0be ab2b 66be
00000120: ee4e 76bd 8c61 20bd 17ed 1fbc df83 b6bd
00000130: 2a06 69be a096 823d 2d71 a1bd 493c 97be
00000140: 899d 73be 1033 86be b533 933c b823 9cbe
00000150: a688 e9bd d740 9cbe 55ba 87be 94d9 8ebe
00000160: 21b0 a6be 5cd2 7cbe 15db 6a3c a071 71be
00000170: fd23 4ebe 6591 67be e878 b0be dab4 8abe
00000180: 8155 9abe 0913 94be 3551 7fbe ee14 5dbe
00000190: 3ef7 c8bd 0cc4 0fbe 5d5b efbd 8795 bcbd
000001a0: 4706 41be ff00 7ebe 6a2c 4dbe cf36 8cbe
000001b0: 3403 acbd c641 5fbe 0687 babd 02cc 2cbe
000001c0: 07ed 3cbe b301 52be 842e 8dbd 563c 3bbe
000001d0: ae69 8bbe f07d 83be d1a7 41be 8f25 f9bd
000001e0: 672d a6bc 85f9 b0be 61c8 3fbe d2fe 12be
000001f0: 4d32 a33d 6dff 30be 5735 6abe eea5 8fbe
00000200: 05f1 3b3d aeec 6e3d d475 1a3d 40af ac3c
00000210: f367 493d 74a8 8cbd 7dd8 983d cbaf 8abd
00000220: e3ad cb3d 7a2c 37bc 6a81 403d 5b5d 383c
00000230: 5b73 a43c 8021 0b3c d464 803d a275 11bd
00000240: a35c 7abd 54f6 213e 51d0 423d e517 b4bc
00000250: deee 32bd b77f c7bb aaab 69bd 09d2 49bc
00000260: 1502 a53d 2b98 ae3d ff2a 143d 3a3c b13d
00000270: 0c1c 47bd 72ea c03d 553b 06bc 3baa c13d
00000280: ed6f 6c3d 0586 05bd 1dd6 1fbd d3fa 14bc
00000290: 90ab 42bc 2edf 5d3d 7d60 893d 5661 0f3d
000002a0: 21b7 853d 959c 223d 6c38 313d 782d 833b
000002b0: cde7 bab9 152b ec3d 0f47 e63d ee3b 253d
000002c0: 7335 e83c ff84 0ebd a282 50bd 5b24 153c
000002d0: 1bc4 cc3c 4dfe a8bd 2099 87ba ab94 663d
000002e0: ca3e 42bc 0a6f 84bd 6b93 6abd e2e8 fd3c
000002f0: f61e b63d 8140 433e 80e9 2a37 ab7d 9a3d
00000300: 569c d6bc 8380 20bd 75f8 263e cd7f 50bc
00000310: 5ac8 4cbd 75cb 83bb 4eba 22bb 3ac3 31bd
00000320: 076f ecbc 74be 71bc bcc9 d0bb 09e1 353d
00000330: de29 033d a0a0 8e3d 9d5f 4c3d e3b9 833a
00000340: c9c7 e03d e9ad 023e 0d6d 8c3d aa69 793d
00000350: 8fcb d93b 4246 b13d 1b91 d7bc 2a0f 843d
00000360: 68b6 3a3c 0860 e1bc 7f45 743d abff 883d
00000370: d9a0 9d3d f566 013c 7162 2a3e 4d5a df3d
00000380: cbf9 f83c 4a71 82bd fbda 43bc b20c 013d
00000390: 17a6 5e3d 03a1 243d b17e 17bd 3e9b 3f3d
000003a0: 05b5 49bb db30 d73d 1d6e 3d3a a809 dcbb
000003b0: 088a 063e 90a6 1fbd fb2d 3abd a9a2 c13c
000003c0: 85d2 c63d 2e33 f63d 90ee 1a3d fc32 f83d
000003d0: f351 413d 1946 9c3b 3b11 7abd f976 c03d
000003e0: a1ec bdbd 7384 693d 6070 043d 6063 73bc
000003f0: d1fa 9bbd c2d2 a13d e799 6d3d 3314 b73d
-0.19390649 -0.22210753 -0.13230231 -0.15074824 -0.27991155 -0.13036051 -0.3143619 -0.2935134
-0.23794262 -0.26725408 -0.16637902 -0.19156194 -0.32940578 -0.19889514 -0.17223868 -0.27362552
-0.28912684 -0.29791236 -0.21154849 -0.24990344 -0.25024977 0.1667431 -0.25521913 -0.2496961
-0.21255715 -0.25641838 -0.2565777 0.109547056 0.00589682 -0.18255839 -0.21811594 -0.28869796
-0.32087114 -0.3467816 -0.17178686 -0.24395274 -0.22679257 0.26074818 -0.101591244 -0.17672873
-0.18336748 -0.16341877 -0.23919535 0.021011773 -0.2711712 -0.20434564 -0.26471642 -0.087377824
-0.17370318 -0.2321083 -0.22736815 -0.10627661 -0.15836829 -0.21049404 -0.25688282 -0.2169166
-0.16791351 -0.10340533 -0.22971287 -0.21197909 -0.23173028 -0.28289416 -0.24510549 -0.24123043
-0.12102152 -0.22380842 -0.29097232 -0.0949168 -0.26991835 -0.100871496 -0.3141478 -0.22477596
-0.060133867 -0.039155528 -0.0097611165 -0.08911871 -0.22756258 0.06376386 -0.07882915 -0.2953818
-0.23790564 -0.26210833 0.017968992 -0.30496 -0.11403017 -0.3051822 -0.26509348 -0.27900374
-0.3255625 -0.2468962 0.01433446 -0.23578501 -0.20130916 -0.22614057 -0.34467244 -0.27091104
-0.3014336 -0.28920773 -0.24933322 -0.21590015 -0.09812783 -0.1403963 -0.11687348 -0.092082076
-0.18850051 -0.24805067 -0.20036474 -0.27385566 -0.083990484 -0.21802434 -0.09107785 -0.16874698
-0.18449794 -0.2050846 -0.06893638 -0.18284735 -0.27229065 -0.2568202 -0.18911673 -0.12165367
-0.020285321 -0.34565368 -0.18728782 -0.14355019 0.079685785 -0.17284937 -0.2287191 -0.28056282
0.04588415 0.058331184 0.037710026 0.02107966 0.0491714 -0.068680674 0.07463167 -0.06771811
0.09945276 -0.011180038 0.04699842 0.011252726 0.020074537 0.008491874 0.062692314 -0.035512574
-0.0611235 0.15816623 0.047561947 -0.02198405 -0.043684833 -0.006088223 -0.057048477 -0.012318143
0.08057038 0.085251175 0.036173817 0.086540654 -0.048610732 0.09419717 -0.008192857 0.09456297
0.05772393 -0.032598514 -0.039022554 -0.009093004 -0.011881724 0.05416792 0.06707857 0.035004936
0.0652907 0.03970011 0.0432667 0.004003223 -0.0003564939 0.11531655 0.11244022 0.040340357
0.0283458 -0.034794804 -0.05090583 0.009102906 0.024995854 -0.08251629 -0.0010345317 0.056294125
-0.01185579 -0.064664915 -0.057269495 0.030994836 0.08892624 0.19067575 1.0187156e-05 0.075435005
-0.026197594 -0.03918506 0.16305716 -0.012725783 -0.049995758 -0.0040220567 -0.0024830285 -0.043399073
-0.028861536 -0.01475488 -0.006371705 0.044404063 0.03202235 0.069642305 0.04989587 0.0010049905
0.10975606 0.12761654 0.06856737 0.060891785 0.0066465805 0.08655979 -0.026314309 0.06448205
0.011396028 -0.027511612 0.05963659 0.0668939 0.07696695 0.007898082 0.16639115 0.109058954
0.030392548 -0.063692644 -0.0119540645 0.031506248 0.054357614 0.040192615 -0.036986057 0.04677891
-0.0030778062 0.10507365 0.0007226186 -0.0067150183 0.13138592 -0.038977206 -0.045454007 0.023637133
0.09708122 0.120214805 0.037825167 0.121190995 0.047197293 0.0047690985 -0.06105159 0.09397692
-0.09273649 0.05701108 0.03233373 -0.014855236 -0.07616199 0.07901527 0.0580081 0.089393996

bias f4 [64]
00000000: 2570 28bf 59ed be3e d501 a0bd f77a c83e
00000010: 5fc6 823e 4f02 0cbf e6bc 2abf 208c d53e
00000020: 27b2 b2bd 0c90 0ebf ae39 d1be e4c3 d73e
00000030: 0f6c 883e 83a5 a2be 5222 e8bd 6043 33bf
00000040: b77a 8a3e 69d0 1bbe 71dd c43e 3119 0ebf
00000050: f9f8 e63e 42fa 2ebf f4c3 8e3e 7fd0 d0bd
00000060: 3211 0bbf 2fd6 07bf 3272 2abf 4eb1 03bf
00000070: 7111 8f3d 4ae0 a7bc ed79 e43e 106d 923e
00000080: 0bee c63e ea57 11bf 5d3f 15bf 1007 11be
00000090: d89a ea3e eb21 de3e 6095 cabe 785d 903e
000000a0: 9efb 87be d8c9 aa3e 320f d83e 39ae a63e
000000b0: 2f4d 1ebf ddfe e9be 6a8e a53e 31cf 9a3e
000000c0: c1d3 03bf dfae c5be b3c2 c93e 186e 9e3e
000000d0: add4 d53e b17b e63e b828 55bd 120d 34bd
000000e0: 4e57 ad3e 3eb2 e43e fdca 32bf db91 16be
000000f0: bdd1 ca3e 54ad dabe 7034 c43e 6a9f dc3e
-0.6579612 0.37290457 -0.078128494 0.39156315 0.2554197 -0.5469102 -0.66694486 0.4170847
-0.08725386 -0.5568855 -0.4086432 0.4214164 0.26644942 -0.317669 -0.11334671 -0.7002468
0.2704675 -0.15216221 0.38450196 -0.5550719 0.45111826 -0.68350613 0.27883875 -0.101960175
-0.5432311 -0.53061193 -0.665805 -0.5144242 0.069857486 -0.020492692 0.44624272 0.28598833
0.38853487 -0.5677477 -0.5829981 -0.1416285 0.4582126 0.43385252 -0.3956709 0.2819631
-0.26559156 0.3335712 0.42199093 0.32554796 -0.6183652 -0.45702258 0.32335216 0.302362
-0.51494986 -0.3860998 0.39406356 0.3094337 0.4176382 0.45016244 -0.052040786 -0.043957777
0.3385567 0.44667238 -0.69840986 -0.14704077 0.39613143 -0.42710364 0.38321257 0.43090373

weight f4 [32, 64]
00000000: 854f e5bb a0fc 84bc 10ad d43c fac1 86bd
00000010: d669 59bd 474b 1dbe 6bc8 32bd a443 1fbc
00000020: 83cc ca3d 2031 c93b 6494 853c 6dec d13c
00000030: 0255 08be e635 94bd eb12 453d 110a 96bd
00000040: fc43 a13b 364d c93c 1e3a 5a3d 5321 9bbd
00000050: 8c1f 5dbd b692 383d ade0 e2bd 60a8 33bd
00000060: 362e 43be ed2a 19bd c78c 36be 8532 823c
00000070: 2c4d 96bd 49bb de3d 04ed 16be 23c6 a83c
00000080: 2a31 893d 535d 2abe b210 463d ea74 cc3d
00000090: 5b54 f93d 4593 06be 0836 fdbd 40ff f6bd
000000a0: f321 3d3d 01aa 933d a601 32bd 4e4d ecbd
000000b0: c814 66ba 8441 d73c 55ff 2a3d 7b82 c4bc
000000c0: 1d61 23bd df68 a73d 2d80 33bd 04f4 cb3d
000000d0: 775e 9b3c 4cca 16bd af2c 01be 8eb2 023e
000000e0: d58c 903d 37dd 9a3d 5805 3abd e379 6d3d
000000f0: a9c7 8ebd a031 afbd e7f7 9dbd 900f 953d
00000100: b67d b4be 218c 82bd fd7f 72bd dfd7 1a3e
00000110: e6f7 d6bd 8e68 36be 2936 ccbe 38c0 fdbc
00000120: 4e34 423d aad3 91be d20c c6bd 0ec7 a33d
00000130: b7e1 8bbd b295 94bd 6e99 8f3d 2432 a3be
00000140: d7ff 813d 5ef8 94bd 3c15 c03d 6620 86be
00000150: ecbe 2abc 4032 d5be 60be a53d 771f bbbd
00000160: 293a 93be a52a 31be f033 27be 087a a8bd
00000170: 78dc aabc 44d1 a1bd 2fba 3f3d c052 c43d
00000180: ab6a 57bd 2ab6 41be 9f1a 25be 9914 2abe
00000190: 1adc 0f3e d06c 52bc 6aeb adbd dc8d 813d
000001a0: 39f9 133d 2a36 17bd e94d 083d 1b16 083e
000001b0: 992b 9fbe 0a76 8fbd bf93 023d c830 e0bd
000001c0: 4950 86be 9281 9bbd 1435 75bb ac53 4a3d
000001d0: 7525 eabc 3de6 063e 3934 a03d ce94 9d3d
000001e0: e842 de3d ff33 2fbd 82f9 babe 54c1 093d
000001f0: 9f8f 4fbd 0aca 53be 5f7a b93d a6c8 043e
00000200: b39a cd3b d9e1 1c3d f9a2 1fbc e7d4 4cbc
00000210: 89c1 bfbd b7f7 c73d 52ea aa3d f8bb 96bd
00000220: befa 153d 33e1 c03d 6e40 933d 808b 0abe
00000230: 40ea 163d 7427 4cbd f054 0fbe 3822 e23d
00000240: 0ba8 edbd d1ac 7dbe 8007 b3bd ae3b ddbd
00000250: b4d5 e0bc 528c 42bd caba dfbb 0579 48bd
00000260: aee7 aabd 48eb cd3d 7266 d4bd 8db7 163b
00000270: 992e a73d 0cfd c5bc 23a4 d1bb 2476 a7bb
00000280: d402 a2bb b898 a0bd 771c c63d 43a7 703d
00000290: 2b45 e43c b6d4 843d f63a fd3d a844 073c
000002a0: 3745 afbd 0d7c d8bc fda0 59bd 8bda a9bd
000002b0: 06de ba39 66f2 60bb dd05 903d 8cb1 d13c
000002c0: d7f4 ef3c a2c6 98bd c679 5abd ba46 1b3d
000002d0: 51b4 af3c 1cd5 d93d 695c 113e 9d2c 9ebd
000002e0: 05d4 c83b 91e0 9f3d ce6f 203d d883 5abb
000002f0: aff4 e7bd ec78 d83d 058e 05bd 76b8 3abd
00000300: da99 c0be 4aef 3c3c 9f27 a03d eeda f73d
00000310: 4c42 c93c cd43 41be 98fb 53be fef4 da3d
00000320: 0fb8 fc3d 51f6 9ebe 413e 6abe 4234 133e
00000330: d697 39bd b8ff 68be fd05 883b 4f38 84be
00000340: 50fc cabd 09a7 5cbe 3e47 a2bd 669b 08be
00000350: cc12 e23c 2799 9cbe 9a95 513c f0b2 cb3d
00000360: e6c3 81be 6f54 46be 1fc1 89be 86a7 3ebd
00000370: 7433 61bd a6f9 8fbc 5014 2abd 404c a83c
00000380: b939 6f3c 6364 afbe 0788 6ebe 2fda 05be
00000390: 4ea1 ed3d 7b03 a03d d7e4 c4bd 5aa7 313d
000003a0: a5b9 4ebe d032 44bd db0e a1bc 67d6 16bc
000003b0: 56f2 47be b4da 1abe ad1f 073e 5c78 0d3e
000003c0: 5671 b9be 7714 82bb 6c4d 5e3c 5b25 86bd
000003d0: 0cb4 da3b 62b6 143e cfb0 3bbe 2955 9b3d
000003e0: 1d3b be3c 11fa bfbb 6a6a 84be 6fea 04bd
000003f0: 3bcc 47bd 5cac 8dbe 897b dc3d e9bf 173d
-0.006998005 -0.016233742 0.025961429 -0.06579967 -0.05307945 -0.15360747 -0.043648165 -0.009720717
0.09902289 0.0061398894 0.01630611 0.025625432 -0.13313678 -0.07236843 0.048113745 -0.07326139
0.0049214344 0.02457295 0.05327808 -0.075747155 -0.053985164 0.04506179 -0.1107801 -0.043861747
-0.19060597 -0.037394453 -0.1782714 0.01589323 -0.07338938 0.108755656 -0.14738852 0.020602291
0.066988304 -0.16637163 0.048355766 0.09983237 0.12174293 -0.13142116 -0.12363821 -0.12060404
0.046174955 0.0721016 -0.043458603 -0.11538182 -0.00087769004 0.026276357 0.04174741 -0.023988
-0.039887536 0.081742994 -0.04382341 0.09958652 0.018965943 -0.03681402 -0.12614702 0.12763426
0.070581116 0.07561725 -0.045415252 0.05797757 -0.06971676 -0.08554387 -0.07713299 0.07278359
-0.3525216 -0.06374384 -0.05920409 0.15121411 -0.104965016 -0.17813322 -0.3988507 -0.030975446
0.047413163 -0.284818 -0.09670414 0.07996951 -0.06830161 -0.072551146 0.07011686 -0.31874192
0.06347626 -0.07273935 0.0937905 -0.26196593 -0.010421496 -0.416399 0.08092952 -0.09136861
-0.2875531 -0.17301424 -0.16328406 -0.082264006 -0.02085708 -0.079012424 0.046808418 0.09586096
-0.05259196 -0.18917146 -0.16123436 -0.1660942 0.14048806 -0.012843326 -0.08492167 0.06325886
0.03612635 -0.03691689 0.033277426 0.13289683 -0.3108795 -0.07004936 0.031879183 -0.10946804
-0.26233128 -0.07593073 -0.003741567 0.049396202 -0.028582314 0.13173766 0.07822461 0.07694398
0.10852605 -0.042774197 -0.36518484 0.033631638 -0.050674077 -0.2068254 0.090565436 0.12967166
0.006274545 0.038301323 -0.009743446 -0.012501932 -0.09363086 0.09764045 0.08345474 -0.07360071
0.03661608 0.09417953 0.07190023 -0.13529778 0.036844492 -0.049842313 -0.13997245 0.11041683
-0.11604317 -0.24772955 -0.08741665 -0.108023986 -0.027445652 -0.0474971 -0.006827687 -0.04894354
-0.08344971 0.10054642 -0.103711024 0.0022997588 0.08163185 -0.024168514 -0.0063977404 -0.005110519
-0.004944185 -0.07841629 0.09673398 0.058753263 0.027865013 0.06485884 0.123647615 0.008256115
-0.085581236 -0.02642634 -0.053132046 -0.08293637 0.00035642105 -0.0034324168 0.07032368 0.025597356
0.029291553 -0.07459761 -0.05333879 0.037909247 0.021448286 0.106363505 0.14195408 -0.07723353
0.0061287903 0.078065045 0.039169125 -0.0033342745 -0.113259666 0.10569939 -0.032606144 -0.045586072
-0.3761738 0.01153166 0.07820057 0.121023044 0.024567746 -0.1887352 -0.20701444 0.1069126
0.12339794 -0.310473 -0.2287531 0.14375404 -0.045310818 -0.22753799 0.0041511045 -0.2582421
-0.09911406 -0.21548094 -0.079237446 -0.1334053 0.027596854 -0.30585596 0.012792015 0.09946239
-0.2534477 -0.19368146 -0.26905152 -0.04654648 -0.05498071 -0.017575096 -0.041523278 0.020544171
0.0146011645 -0.34256276 -0.23294078 -0.13071512 0.11603032 0.07813164 -0.0961396 0.04337249
-0.20188005 -0.04790002 -0.019660404 -0.009206391 -0.19526038 -0.15122491 0.13195677 0.13815445
-0.3621928 -0.0039697248 0.0135682635 -0.06550094 0.0066742953 0.14522699 -0.18329166 0.075846024
0.023221547 -0.0058586677 -0.25862437 -0.032450136 -0.048778754 -0.27670562 0.1076575 0.037048254

bias f4 [32]
00000000: ba69 2c3e f9a9 4c3f 3cc5 343d bd9a 3d3f
00000010: 31b1 51bf 7c8e 24bf a6a9 57bf e1bc 373f
00000020: 43a8 3e3f 1ec3 5fbf c3a9 50bf 4383 51bf
00000030: c0f6 a63d f381 fd3d 5d43 1d3f ad4a 4cbf
00000040: 949b 2c3f 8458 4fbf 63a4 4dbf 21d2 08bf
00000050: 4655 58bf 070c 453f 469e 53bf 2fcd 393f
00000060: f3f2 58bf c899 2a3f be79 4f3f 3586 523f
00000070: b7b9 503f 2625 58bf 146e 4d3f a32e 56bf
0.16837206 0.7994686 0.04413341 0.74064237 -0.81911 -0.64279914 -0.8424324 0.7177258
0.74475497 -0.874071 -0.81509036 -0.81840914 0.081525326 0.123783015 0.61430913 -0.79801446
0.67424893 -0.8099444 -0.8032896 -0.5344563 -0.84505117 0.7697148 -0.8266338 0.7257871
-0.8474571 0.666409 0.8104514 0.82236034 0.8153338 -0.84431684 0.8024609 -0.8366491

weight f4 [6042, 8]
00000000: 3813 8cbf 16bf a33f 1b07 e53e f3aa c43f
00000010: 5294 903e 0d52 ecbe 6751 8abf c689 92be
00000020: bb3e 74bf 7fc2 afbf 6777 f73f 0cb0 b83f
00000030: 22db 523f 3044 22bf 74cb 00c0 2164 363f
00000040: dd7d b93f c6fb 80be 4b67 7c3f c17d 0fbf
00000050: 2253 863e 53db ebbf 431c bcbf 8e0a 1c3f
00000060: f268 b13d 3775 933f 5c77 e13d ca95 3c40
00000070: 97b2 08bf bb46 ce3e dbd2 20bf e413 ed3e
00000080: db74 0cc0 6834 f0be 174d ce3f ee38 953e
00000090: dd3d f7be bc97 113f e969 f0bf 1556 5b3d
000000a0: 1909 1a3f 1e8e 3b3f edec 533f fd56 d8be
000000b0: 62df 2040 2baa a43f 91e1 093f ff4a 3b3f
000000c0: 4e51 a73d cb15 403f fa51 b1bf fbcd c1bf
000000d0: 11cb 423f e422 843f f4fb f43f ad74 4b3e
000000e0: 8800 793e 23b6 493e 1707 0440 0c0f 523f
000000f0: 4fdc 30c0 fdf1 4a3f 4f61 213e 1d16 49bf
00000100: 0588 493f 9e92 743f 5481 30be 74b9 6d3f
00000110: f546 bf3f f83e 9abe 6a1c 623f 97d3 9fbf
00000120: 7a25 e1bf 2fff f9be d6b8 1d3e a728 86bf
00000130: da10 023e 1ef3 a53f 549c 5c3f 164d e93e
00000140: c253 dfbf 37c5 a9bf bf08 a9bf d30b c4bf
00000150: 190e 5e3f ea41 023f ad07 513f fa24 1cc0
00000160: 3718 173f 2c42 863f 76ed c0bd e768 943d
00000170: beff 5abf d47c 803d f7c8 cf3f 76b3 febe
00000180: 24e0 33bf 9604 003f 4d40 b23f b11d 79bd
00000190: a989 213f 512b 7abc 2007 21bf e830 31bf
000001a0: 5a39 433f 2140 1c40 d8e2 973d 2b49 cf3e
000001b0: 873d 0940 ad48 1abf 0597 c53f 3f10 5b3f
000001c0: aa66 453f 0cee 0ebf f0e3 00be 8547 5a3f
000001d0: 8c58 6c3f 1d4b 323f ccde c53f a0c6 edbf
000001e0: 4bf2 793f 4533 dc3f 25cb d03c dc3e 9b3f
000001f0: f83f edbe a4d9 3640 ae7b e8bf 62dd 5dbf
00000200: b6be aa3f 00ab a3bf 0cf1 b1bf 79b9 88bf
00000210: 67b1 82bf ccd0 92bf db7a 4f3e bf07 1ebf
00000220: ebd4 39bf a3a5 1240 6179 633f f529 dc3f
00000230: 92f9 1a40 56cd 92be 8c2b fbbf 26df 853f
00000240: ed38 f8bf 4664 143f f030 9cbf c61b 833f
00000250: 845a fb3f 1246 433f 4413 5bbf 91d9 edbe
00000260: 71d5 06bf 6071 0940 f60c 00c0 eb85 c83f
00000270: a0c6 2140 f616 e63e 2a53 cbbf 827f 3a3e
00000280: 810a 26c0 87a1 e8bf 9a40 863f 5694 043f
00000290: 5988 e13e d703 d6bf 3e4a bcbf deb7 edbe
000002a0: 9757 a33f b5f7 cebf daac 0d40 8af7 7d3f
000002b0: af99 993f 33e7 96bf 162b d13d a329 8b3f
000002c0: 900e c9bf 9091 0a40 6f68 d2bf 53ce 753e
000002d0: f91b 82bf 52f6 90bf 1fd3 f0be b122 453f
000002e0: 2a79 b23f aa89 f2bf 73f7 833f 1333 083d
000002f0: 7281 6fbf 8005 5c3f 1432 8c3f 8070 0ac0
00000300: 2e6c f03e 9b01 de3f 1e39 0540 23c0 a33f
00000310: 6372 0540 c018 5abf e513 8bbf b53e c6bf
00000320: 01c9 f63e b2a5 fdbf 4285 24bf 366a 803f
00000330: 27cd 6c3f af4f cf3d 2285 d13f ee39 1140
00000340: 3be9 923f 8aaa f5bf e94a dfbe 29c0 f7be
00000350: ccc8 483f c598 56bf 0b54 43bf 8352 2dbf
00000360: c131 9ebf 47e5 7cbf a927 12c0 044a 0ebe
00000370: 2cdb 823c a6ae ac3f 1652 22bf 6c0a 6ebf
00000380: 2759 a5bf 25bf ab3f d0f0 793f e3a8 10bf
00000390: c255 1240 4b5c e13d 5cf6 b03e 0986 81bf
000003a0: 215e 0cc0 5f58 20be 37f1 bcbf 619a 0740
000003b0: dc0a 18c0 1149 efbf 0ebe 1540 7d1f adbf
000003c0: 0705 373e cd85 abbe 43fe 1ebf 35ce 933e
000003d0: 3125 a33f c97c 71bf 8878 aabf 715c 35bf
000003e0: efe7 383e 3cf9 903f 2790 85bf 2e01 b4bf
000003f0: dec2 cfbf 052f 76bc b8c7 6dbf b26b f53f
-1.0943365 1.279269 0.44731984 1.536467 0.2823816 -0.4615635 -1.0806092 -0.28620738
-0.9540822 -1.373123 1.9333314 1.4428725 0.8236562 -0.63385296 -2.0124178 0.71246535
1.4491535 -0.25192088 0.9859511 -0.5605126 0.262353 -1.8426307 -1.4696125 0.60953605
0.08662595 1.1520146 0.11009094 2.9466424 -0.53397506 0.40288338 -0.6282174 0.46304238
-2.1946323 -0.46914983 1.6117276 0.29144996 -0.48289385 0.56872153 -1.8782321 0.05354889
0.6017013 0.7326373 0.82783395 -0.42253867 2.5136342 1.2864431 0.5385981 0.7316131
0.081698045 0.75033253 -1.3853142 -1.5140985 0.76091105 1.0323148 1.913939 0.19868727
0.24316609 0.19698386 2.0629327 0.8205421 -2.7634466 0.79275495 0.15759777 -0.7854937
0.78723174 0.9553622 -0.17236835 0.92861104 1.4943529 -0.30126166 0.88324606 -1.2486447
-1.7589562 -0.48827502 0.1540254 -1.0481156 0.12701741 1.2964818 0.8617604 0.45566624
-1.7447436 -1.326331 -1.3205794 -1.5316108 0.8674026 0.50881827 0.8165234 -2.4397569
0.59021324 1.0488944 -0.09420292 0.07246571 -0.8554648 0.06273809 1.6233205 -0.49746293
-0.70263886 0.50007 1.3925873 -0.06081933 0.6310068 -0.0152691165 -0.62901497 -0.6921525
0.76259387 2.441414 0.07416314 0.4048551 2.1443803 -0.60267144 1.5436713 0.85571665
0.7710978 -0.5583198 -0.12586951 0.8526538 0.9232261 0.69645864 1.5458617 -1.857624
0.97635335 1.7203146 0.025487492 1.2128558 -0.46337867 2.8570337 -1.8162744 -0.8666593
1.333945 -1.278656 -1.3901687 -1.0681602 -1.0210389 -1.146997 0.2026171 -0.6173057
-0.7259051 2.2913597 0.88857085 1.7200304 2.4214826 -0.28672284 -1.9622664 1.0458724
-1.9392372 0.57965505 -1.2202435 1.0242851 1.9636998 0.76278794 -0.8557627 -0.46455052
-0.52669436 2.1475449 -2.000791 1.5665869 2.527748 0.44939393 -1.5884755 0.18212703
-2.594391 -1.8174294 1.0488465 0.5178884 0.44049338 -1.6719922 -1.4710157 -0.46429342
1.2761105 -1.6169344 2.213675 0.9920584 1.2000026 -1.1789306 0.10213296 1.0872082
-1.5707569 2.1651344 -1.6438121 0.24004488 -1.0164787 -1.1325171 -0.47036073 0.7700606
1.3943226 -1.8948262 1.030989 0.033251833 -0.9355689 0.8594589 1.0952783 -2.1631165
0.46957535 1.734424 2.0816112 1.279301 2.0851066 -0.85194016 -1.0865446 -1.5487887
0.4820023 -1.9816191 -0.64265835 1.0032413 0.9250054 0.1012262 1.6368754 2.2691607
1.1477426 -1.9192669 -0.4361184 -0.48388794 0.7843139 -0.8382686 -0.76300114 -0.6770403
-1.2358934 -0.9878735 -2.2836707 -0.13895422 0.01597365 1.3490798 -0.63406503 -0.9298465
-1.2917832 1.3417708 0.97633076 -0.565077 2.2864842 0.110039316 0.34562957 -1.0119029
-2.1932452 -0.15658711 -1.4761113 2.1187975 -2.3756628 -1.8694173 2.339725 -1.3525234
0.17873012 -0.3350052 -0.6210672 0.2886826 1.2745725 -0.9433103 -1.3318033 -0.7084418
0.18057226 1.132606 -1.0434617 -1.406286 -1.6231344 -0.015025859 -0.9288287 1.9173491

weight f4 [23, 8]
00000000: 58f9 1ebe 2546 e5be d167 3cbf 7460 913e
00000010: ef5e 4a3f 050a 27bf 7c4f 3a3e 317c d53e
00000020: 31e8 82bf e72d ba3f b266 03bf 8c37 8a3f
00000030: 564a aebe 313f bb3f 4ffc 6cbf 673b 94bf
00000040: 1d0a 1840 67b0 d13e 0586 8d3f 9a9d 5dbf
00000050: a698 8e3f cac6 da3e b469 2dbd a5ef 86bf
00000060: 5738 53bf 8ce7 0040 3142 36bf 116b d8be
00000070: 482a d4bd 8efb b23e bcc2 5e3e 8f0c 0c3f
00000080: 35ee fa3f e98b 093e f9d0 56bc 2125 863f
00000090: 156c 06bf 088e b1bf 2cec 9f3e aa2b 983e
000000a0: 4b2e d93f 3615 24be 968a 5b3e e24d 76bf
000000b0: 9982 78bc 3dc4 27bf 6493 e3bf 662f 8ebf
000000c0: fb35 f3be d659 163f a4c5 c4be de91 e6bd
000000d0: 0065 fcbe 55e7 0c40 8c01 f8bc bd24 d8be
000000e0: 6a76 69bf 8fad 31bf b1f3 b1bf a572 2c3f
000000f0: a820 8ebe 31aa 25bd 9067 05c0 c8a8 80bf
00000100: 0830 c2bf 723b 2e3d c035 9dbf ded9 b3bf
00000110: a419 45bf a1a5 53bf 7483 05c0 1b0e aabe
00000120: ce00 433e a892 673f 9381 093f 167f c73f
00000130: c15a a23e f8a1 d4be 7fc8 20bf bf02 0c3f
00000140: 1fe3 243f bc77 91bf 8630 babf 75a0 153e
00000150: e3e8 82be ad72 05c0 d014 4f3f 661c 1fbf
00000160: 86e4 633f baf8 a5bf 06c9 183f 9031 c43e
00000170: 908b 37bf 84fd c5bd 4bc1 eb3f 06d2 0cbe
00000180: a073 a1bf 5553 373e da04 993f 914a 96bf
00000190: 13ba cd3e 260f e93d c8c9 903f ecbb a93f
000001a0: fdbe 72bf c48d 163f e15b 8d3f 85d1 0bc0
000001b0: 07fa dfbb 9d0d 91bf c34e cbbe 6a04 043f
000001c0: cef8 5a3f 66b4 863e 3a24 7e3f dda4 3c3f
000001d0: f90d 58bf baaa 9d3f f213 583f e09e 9dbf
000001e0: 5ba0 d3bd 7bcd bf3f 2c07 fbbe 4244 883e
000001f0: 21e8 4ebf d037 6ebf 191a 883f a328 41bf
00000200: 2bc0 263f ad40 e7be 5b5d 013f 4681 ce3f
00000210: c879 9b3f 2680 623e 6993 0abf c275 543f
00000220: 3502 f33c dec9 bc3e 3803 a0bf 986e bcbf
00000230: 9d0e 8abf af29 9ebf a8a7 abbf 8206 f8bf
00000240: c37d 203f 440e 6bbe 79a8 24bf e6c5 a9bf
00000250: e2b5 e03d 9f86 883f f010 ec3d 39e2 ab3f
00000260: fce3 02bf 0796 00be 1a71 19bd 18b7 fb3d
00000270: 530b 96be a8dd 9cbd 8101 683d ee06 e43f
00000280: ce72 ad3e 6c52 323e 09ba 883f d4a2 a3be
00000290: 1094 f3be b9b5 263f 9ffb 91bd cf7a 9b3f
000002a0: a2fa 203f 2e0a ee3f ac34 183f 23c0 4c3f
000002b0: dc97 68bf 4e04 133f 8967 b33f 57cc 6a3e
000002c0: d427 ed3d 491d 8a3e 0719 95bf f69b a53f
000002d0: 2dc1 ca3f 30f0 563f 85e7 8b3e 12c6 33bf
-0.15524805 -0.4478008 -0.7359591 0.283939 0.7905111 -0.65249664 0.18194383 0.41696313
-1.0227109 1.4545258 -0.51328576 1.0798202 -0.3404109 1.462866 -0.9257249 -1.1580628
2.3756173 0.40954897 1.1056525 -0.86568606 1.1140335 0.4272979 -0.042337134 -1.0541884
-0.8250784 2.0141325 -0.7119475 -0.42269185 -0.10359627 0.34957546 0.21753973 0.5470666
1.9603945 0.13432278 -0.013111346 1.0480081 -0.5250867 -1.387147 0.31234872 0.29720813
1.6967252 -0.16023716 0.21439585 -0.9621259 -0.015167856 -0.6553381 -1.7779355 -1.1108215
-0.4750212 0.5873083 -0.38432038 -0.11258291 -0.49295807 2.2016194 -0.030274175 -0.4221553
-0.9119631 -0.69405454 -1.3902494 0.67362434 -0.2775929 -0.04044551 -2.084446 -1.0051508
-1.5170908 0.04253716 -1.2282028 -1.4050863 -0.7699225 -0.82674605 -2.0861483 -0.33213887
0.19043276 0.90458155 0.5371334 1.5585659 0.31709865 -0.41529822 -0.6280593 0.5469169
0.6440906 -1.1364665 -1.4546058 0.14611991 -0.25568303 -2.0851243 0.8089113 -0.6215271
0.89020574 -1.296653 0.5968174 0.38319063 -0.7169733 -0.09667495 1.8418363 -0.13751993
-1.2613411 0.17902882 1.1954606 -1.1741506 0.40181026 0.113798425 1.1311579 1.3260474
-0.94822675 0.5881007 1.1043664 -2.184663 -0.0068352255 -1.133228 -0.39708528 0.51569235
0.85535896 0.26309508 0.9927403 0.7368906 -0.8439632 1.2317727 0.84405434 -1.231411
-0.1033332 1.4984583 -0.4902891 0.26614577 -0.8082295 -0.93053913 1.0632964 -0.7545263
0.65136975 -0.4516653 0.50533074 1.6133201 1.214654 0.22119197 -0.5413118 0.82992184
0.029664138 0.36872762 -1.2500982 -1.472125 -1.078571 -1.2356471 -1.341054 -1.9376986
0.626919 -0.2295466 -0.6431957 -1.3263519 0.109721914 1.0666083 0.11526668 1.3428413
-0.51129127 -0.12557231 -0.037461378 0.12290782 -0.29305515 -0.07659465 0.05664206 1.7814615
0.33876652 0.17414254 1.0681773 -0.31960166 -0.475739 0.65121037 -0.07128071 1.2146853
0.62882435 1.8596857 0.5945537 0.7998068 -0.9085672 0.57428443 1.4015971 0.22929512
0.11579862 0.26975468 -1.1648263 1.293822 1.5840203 0.8396025 0.27325073 -0.70224106

weight f4 [4, 8]
00000000: 0edc da3e acf0 15bf 80ae 213f 67f0 9dbf
00000010: dc53 533f bd4c 81bf d940 0a3f faec 393f
00000020: 5f03 6d3f 5471 e23e 0a9c 51bf ebe3 35bf
00000030: c028 9cbc 0080 f9bc 63bc e53f 946f e4be
00000040: 444b 833e 8982 d5bd 0043 7c3e 105e 17c0
00000050: 62df 793f d321 5f3f 70ce 94be 05f3 de3e
00000060: 8cb4 7bbf 1ad2 b9bd 6eab 143f f729 9a3f
00000070: 023e 893f cb39 4abf 3045 ce3d d0f8 3ebf
0.42746013 -0.5857036 0.6315689 -1.233899 0.82549834 -1.0101544 0.540052 0.7262722
0.9258327 0.44227087 -0.8187872 -0.710509 -0.0190624 -0.030456543 1.7948116 -0.44616377
0.2564336 -0.10425288 0.24634933 -2.3651161 0.9760648 0.87160987 -0.2906375 0.43544784
-0.9832237 -0.09073277 0.5807408 1.2044057 1.0722048 -0.78994435 0.1007179 -0.7459841

weight f4 [9, 8]
00000000: d58d bd3e 4d58 9bbf 025f a13f 12f6 523f
00000010: bf7d 203d 10bd 80bf 9f9b 4d3e 1695 82bf
00000020: 6d2a 27bf 2d29 9b3e 7cc6 1bbf 4b0b 963f
00000030: 44ad a1bf 83d4 86bf 911e 613e 8b32 fb3e
00000040: ef2b e4bf b1f7 f73e 6940 07c0 4c82 a7bf
00000050: c3e8 92be cb91 9abe 8c95 a3be 9008 6cbf
00000060: 59f4 b0bd 9174 0cbe babb 6abf f92b 553d
00000070: cec4 55bf afc1 b8bd 3ac2 42bf 68db e33e
00000080: 19c8 aabe 50af f23e 8c0e c93d d382 91be
00000090: 2ff5 a03c b3a2 8c3e 67ec ef3e 4226 3fbf
000000a0: c9be e6be 3682 4e3f 714d ecbf 15e8 56be
000000b0: 9e1d 3e3f 4545 66be ee7b b2be d38d 0a3f
000000c0: 438a 203e f67f 43bf 84fc d93e 6671 f2be
000000d0: a50f 753d 997e 823f ae55 4bbf 5ab4 83be
000000e0: 6037 50bf 129f 3dbf d254 db3e 60f3 0f3e
000000f0: ad5e 09be 9444 75be 14e5 0a3f d148 2c3f
00000100: 1f34 f5be 98c2 42be 61fe 963f fa74 073f
00000110: babb 43be c304 153e 18c8 a1be 35b5 903e
0.37022272 -1.2136322 1.2607119 0.82406723 0.03918242 -1.0057697 0.20078896 -1.0201747
-0.6529911 0.30304852 -0.6084974 1.1722196 -1.2631001 -1.0533603 0.21984316 0.49062
-1.7825907 0.4843116 -2.1133063 -1.3086638 -0.28693208 -0.30189356 -0.31950033 -0.92200565
-0.086403556 -0.13716342 -0.916927 0.05204389 -0.83503425 -0.09021317 -0.76077616 0.4450333
-0.33355787 0.47399378 0.09817228 -0.28420123 0.019648163 0.2746788 0.46860048 -0.7466775
-0.45067433 0.80667436 -1.8461133 -0.2098697 0.7426394 -0.22487362 -0.34860176 0.54122657
0.15677743 -0.7636713 0.42575467 -0.4735214 0.059829373 1.0194885 -0.7942761 -0.25723535
-0.81334496 -0.7407085 0.4283815 0.14057684 -0.13415022 -0.23951942 0.54255795 0.6729861
-0.47891328 -0.19019544 1.179638 0.5291287 -0.19114581 0.14552598 -0.31597972 0.2826325

weight f4 [2, 4]
00000000: 7da0 91be 90ec 2ebe a4ba c6be cce1 293e
00000010: a393 6cbd 7b90 863e 3061 0ebb 1b12 babc
-0.28442755 -0.17082429 -0.3881427 0.16590041 -0.057757985 0.26282105 -0.0021725409 -0.022713711

weight f4 [4, 2]
00000000: 957c 843e 1a43 a03e 8e46 1a3e 5802 13bf
00000010: ca97 d9be afef 87bd c024 fcbe 984d 32bf
0.258763 0.31301194 0.15065977 -0.5742545 -0.42498618 -0.06637513 -0.49246788 -0.6964965

weight f4 [128, 24]
00000000: 72f2 06be eaff efbd 8bc4 76be 059f 84be
00000010: 5ad2 b2bd f6f4 27bd f5b8 43be 9e59 64be
00000020: f732 e5be 4529 d83e 04b7 e4bd a156 283e
00000030: 3a26 b43d ea6c c83e e9fd 7fbe 467e 37bd
00000040: 75bf e5bd 3b3d 00be 7798 da3d b089 4c3c
00000050: 1199 063e 5d9b 0b3e 3415 093d 5e43 a33c
00000060: 3d3a 84be 05ed 98be cdd3 8a3d 95dd 5e3e
00000070: a020 c4be 76ce 463e 47ff cfbe 43ac 9bbe
00000080: 0f4d 49bd 9120 093e 7a8f ee3c 9366 bebd
00000090: 42d3 b0bc 7994 82bc 0aca 26bc e820 82be
000000a0: f6e3 19be ad55 e13e 7ee6 cc3d d627 b2bb
000000b0: 11ee cf3d fd11 a0bd 331e 963e 73f9 8fbe
000000c0: 160f 833e b729 8a3e 0d1c 0f3e 094c 883e
000000d0: 42cf 063e e8d3 c43d 0c22 f5bd 8dde ae3d
000000e0: b8b0 d8bd 8c9e 87be 6179 a5bd d124 90be
000000f0: 88a6 cabd e28e 1fbc e925 bd3d 7ae9 92bc
00000100: 9f4f ebbd dc7b 34be 38f6 5fbe b891 ad3b
00000110: 8d8d 3b3d 0d47 b33b e63b 86bd d7c4 2cbe
00000120: 4388 9bbd 94e7 883e 072a 003e 9cc1 44bd
00000130: 5112 ef3d 37c6 273d c2d5 223d af76 063e
00000140: 5b3a d43d 67e3 703e 35bf 0fbe 4b64 94bd
00000150: c786 7cbd 0c0c d63d 1fda 22be ad97 883d
00000160: a781 cabd 4f4c 28be d889 77bc af2a 8abe
00000170: 0e42 8e3e 82c0 4fbe e8b2 a33d 6ffb a0be
00000180: ce16 913a c047 eb3d d13b 0f3d 79e5 a03e
00000190: 2e4b 73bc 05ae 2bbe 274b 57be 9e5a 12bd
000001a0: b7db 183d a242 3bbe 63fd fd3d 5818 3ebe
000001b0: f46e a6bd 4408 8fbe e17f 1d3e 922c c6bc
000001c0: 769d 1b3e 0220 b6bd d201 24bd bcef 53be
000001d0: c348 7f3c bc7c 063c bf66 64bc b6e3 943d
000001e0: beec 9cbc d3f2 79bd bf20 7b3d c731 b3bd
000001f0: 32c4 163c 0e78 00be 318a 11be c6f1 4ebe
00000200: 33a0 97bd 4c8d 2cbe bb0a 23be 47fb 81bd
00000210: 5e84 06bd 8a05 54be c193 de3d b135 95bd
00000220: f16b 0bbe 7583 0cbf 202c 983d 95d6 dcbd
00000230: 7dd4 223e dc82 cf3c b16d f7bd 0541 a4be
00000240: c308 32be ebaa 8fbe ae61 11be c7aa f3bc
00000250: 75cc 4bbe 4808 653e 8d00 7fbd 6554 87be
00000260: 882c 52be 1e8e 843d e775 cabd 4990 353d
00000270: 2999 433d c5ec b53d aa2e 1ebe 2e9c 0c3e
00000280: d6d0 1cbd 635f d6bd 03c7 b9be 0f21 1bbd
00000290: 5d97 343e 3cb1 863d d646 8ebe b738 393e
000002a0: 7644 04bd 5701 9bbd b747 66be b132 a13e
000002b0: 0c27 353e 9985 47be a646 28be 28a9 7ebe
000002c0: e202 2fbd 15b3 cbbc 5ec4 273e 0040 30bd
000002d0: 0ce9 f5bc 33c7 9cbd e0bd e73d 0c1c 85bd
000002e0: 8764 44bc 5f3f 063e 9038 9fbd 56bf 8abd
000002f0: 3b21 ffbd e9a2 603e 2caa 1c3e fcf7 c63d
00000300: 4819 943e fe67 6e3e b0b9 073e 7198 0bbd
00000310: 12ed e23c 72eb 863d 0a8d 9abd f59b c7bd
00000320: 1908 0e3e 4852 ebbd 5b71 06be 534c fc3d
00000330: d700 0ebe 75e3 30be 8189 ccbd 398c ee3d
00000340: 3538 0a3e 5249 39bd 9195 313e 35b5 763e
00000350: 0b8c 16be 805d 1e3e 3067 1ebe 4847 05be
00000360: d0ac 513e 5251 ad3d a032 3f3c b551 b33e
00000370: 61c0 8dbe 0abf c03d a87c 183e 41f3 333e
00000380: bb1b 703e 9891 503d 4c68 bb3d df2d 05be
00000390: b062 83be 68b7 493d 0200 753e 836d 92bd
000003a0: 64a7 0bbd f2e4 723d bf09 123d 2bf1 80bd
000003b0: 8037 03be 0613 79bc 499a 633b bf18 d13d
000003c0: 0363 9abd 633e 563e da03 fa3d 3948 cc3c
000003d0: 23cf 9d3d ef1c 41be 0b82 73be f1c4 35bd
000003e0: 0df5 6e3e beb1 80bd c559 823d b181 40be
000003f0: d6f9 abbd 0a28 82be d5c9 18be 24c9 8ebe
-0.13178423 -0.117187336 -0.24098413 -0.25902572 -0.087315276 -0.041005097 -0.19113524 -0.22299811
-0.44765446 0.42218986 -0.1116772 0.16439296 0.08796354 0.39145595 -0.24999203 -0.044798158
-0.11218158 -0.12523358 0.106736116 0.012483999 0.13144328 0.13633485 0.033467487 0.019929584
-0.25825682 -0.29868332 0.06778679 0.21764214 -0.3830614 0.19414696 -0.4062445 -0.30404863
-0.049145754 0.1339133 0.02912115 -0.09296908 -0.02158511 -0.015939938 -0.010180006 -0.2541573
-0.15028366 0.44010678 0.100049004 -0.0054368777 0.101528294 -0.07815931 0.29319915 -0.28120002
0.25597447 0.2698495 0.13975544 0.2662051 0.13165 0.096107304 -0.119693846 0.08538542
-0.105805814 -0.2648815 -0.08079792 -0.2815309 -0.098950446 -0.009738656 0.092357464 -0.017933596
-0.11489796 -0.17625374 -0.21871269 0.005296912 0.04578929 0.0054711164 -0.065543935 -0.16871963
-0.07594349 0.2673918 0.12516032 -0.048036203 0.116734155 0.040960517 0.039754637 0.13131212
0.10362693 0.23524247 -0.14037783 -0.07245692 -0.06165197 0.104515165 -0.15903519 0.06669555
-0.098880105 -0.1643536 -0.015108548 -0.2698569 0.2778477 -0.2028828 0.07993108 -0.3144183
0.0011069418 0.114882946 0.034969155 0.31425074 -0.014849467 -0.16765602 -0.21024762 -0.03573095
0.03731891 -0.18287137 0.12401845 -0.18563974 -0.081266314 -0.27935994 0.15380813 -0.024191175
0.15196785 -0.08892824 -0.0400408 -0.2069692 0.015581313 0.00820845 -0.013940512 0.07269995
-0.019155856 -0.06102259 0.061310526 -0.08749729 0.00920205 -0.12545797 -0.14212872 -0.20209417
-0.074036025 -0.16850775 -0.15922062 -0.063467555 -0.03284108 -0.20705238 0.108680256 -0.072856314
-0.13615395 -0.5488809 0.07430291 -0.10783116 0.1590137 0.025330953 -0.12081469 -0.32080856
-0.17386155 -0.28060088 -0.14197418 -0.029744519 -0.19902213 0.2236644 -0.062256385 -0.26431575
-0.205248 0.06472419 -0.09885769 0.044327054 0.047753487 0.08883051 -0.15447488 0.13731453
-0.0382851 -0.10467412 -0.36284646 -0.037873324 0.17635866 0.065767735 -0.2778842 0.18088041
-0.032291852 -0.07568615 -0.22488295 0.31483987 0.17690676 -0.19484557 -0.164332 -0.24869215
-0.04272736 -0.024865666 0.16383502 -0.043029785 -0.030018352 -0.07655182 0.11315513 -0.0649949
-0.011986858 0.13110112 -0.0777446 -0.06774776 -0.1245751 0.21937145 0.1529929 0.09715268
0.28925538 0.23281857 0.13254428 -0.034080926 0.027700935 0.065878764 -0.07546432 -0.09746543
0.13870277 -0.11490303 -0.13129179 0.12319245 -0.13867508 -0.17274268 -0.09987164 0.11647839
0.13498004 -0.04523594 0.17342211 0.24092562 -0.1470186 0.15465355 -0.1546905 -0.13015473
0.20476079 0.08462776 0.011669785 0.35023275 -0.27685836 0.09411438 0.14891303 0.17573263
0.23448078 0.0509201 0.091507524 -0.1300578 -0.2566123 0.049247175 0.23925784 -0.07149794
-0.034095183 0.05930037 0.035653826 -0.06295999 -0.1281414 -0.015202289 0.0034729412 0.10209798
-0.07538416 0.20922236 0.12207766 0.024936782 0.07705524 -0.18858694 -0.23780076 -0.04437727
0.23335667 -0.06283902 0.063647784 -0.18799473 -0.08397262 -0.25421172 -0.14920743 -0.27887833

bias f4 [128]
00000000: de95 fdbe 9159 c9bb 8e6c 623e a8e8 133c
00000010: 4c4e 793e a1d0 f4bd 305b 4abd 32f6 5dbe
00000020: aba1 8b3e 7100 723e 44c3 c63d 88ae f0bd
00000030: 2a9a 10be 5ce0 943e ba1e 573e 8aa5 a93e
00000040: df99 9ebe ce44 b8be c769 383e 9c7d 103e
00000050: 9e6d dbbc c0a4 a7bc 84eb 67be 5826 9d3e
00000060: 3bf1 afbd e57a 643e 2bb1 5ebe f65f 5abe
00000070: d221 54be f063 d8bd f266 09bb 55e5 37bd
00000080: f99d 8f3d 4c5a 53be 5226 8f3e c602 61be
00000090: 8e90 903e 1c75 46be 162b 6dbe d62f 853e
000000a0: b220 5b3e 62f6 1d3e b6dc 86be 212f f53d
000000b0: cad3 173d 6a7c 2e3e 0643 68bd cbd2 a33e
000000c0: ecd6 173e a1f4 ee3c 21c5 473e 05de 6b3d
000000d0: ff44 7c3d 39dc 3dbd 6247 e2bc 08a5 c1be
000000e0: 7add a53d 68e8 c1bd 69ab 4a3e 4d55 d53c
000000f0: 9925 7c3e 1034 c1bd ad3e 09bc d340 22be
00000100: a4f0 913e b70f 51bd 8192 70bd 99db 483e
00000110: 9ee2 15be 9411 63be c7d8 f9be 8886 05bf
00000120: 1704 933d 0c2f 12be 471d fcbe fcf5 c0bd
00000130: f895 933e c330 713d 7b25 ecbd 8906 2c3d
00000140: 96bf 953e b48c c83e 9a83 6e3e 2565 1a3e
00000150: f901 89be de44 9e3e 8a14 8b3e 8b05 8dbe
00000160: 4a27 0b3e bc35 12be c37c 663e 7b1b 81bb
00000170: f539 143e 935d b5be 09ca be3d 9151 433e
00000180: 6acd 89bc 2cf3 2c3e 0aea 39be c4fc b03d
00000190: ac20 6c3e 7244 c4bd 5de8 223e 3731 d8bc
000001a0: 7d61 11be 6e55 d03d 31ed 35be 20d1 893e
000001b0: e53a 093e b439 8abe 4a88 7bbe 9d66 a93d
000001c0: a43b 78be 9c9e 09be 1318 a93e 6440 8c3e
000001d0: 772e 7f3c 93c7 07be c489 aabd 4165 67be
000001e0: 8022 1d3e 2715 5f3e e32b e3be 801e df3d
000001f0: 6519 5e3e 56eb 2c3d a3bf a03e b92d 4b39
-0.49528402 -0.0061447104 0.22111723 0.009027638 0.24346274 -0.11953855 -0.04940337 -0.21675947
0.2727178 0.23632981 0.09705213 -0.11752039 -0.14121309 0.29077423 0.21007815 0.3313411
-0.3097677 -0.35989994 0.18009101 0.14110416 -0.026785668 -0.020464301 -0.22648436 0.30693316
-0.08590933 0.22312506 -0.21747272 -0.21325669 -0.20716026 -0.105659366 -0.0020965901 -0.044896442
0.07012553 -0.20639914 0.27958924 -0.21973714 0.28235286 -0.19380611 -0.23160967 0.26013058
0.21399191 0.15426019 -0.26340264 0.1197188 0.037067212 0.17039648 -0.056704544 0.3199676
0.1482808 0.029169383 0.19508792 0.05758478 0.061589237 -0.0463526 -0.027621929 -0.3782122
0.08098884 -0.09468156 0.1979195 0.026041651 0.24623717 -0.09433758 -0.0083767595 -0.15845041
0.28503907 -0.051040377 -0.058733467 0.1961502 -0.14637229 -0.22174674 -0.487982 -0.52158403
0.071785145 -0.1427576 -0.49241087 -0.09421918 0.28825355 0.058884393 -0.11530586 0.04199842
0.2924773 0.39169848 0.2329239 0.15077646 -0.26759318 0.30911916 0.27164108 -0.2754329
0.13589206 -0.1427831 0.2250853 -0.0039400435 0.14475234 -0.35422954 0.09315879 0.19074084
-0.016821582 0.16889638 -0.18155685 0.08641961 0.23059338 -0.095833674 0.15908952 -0.026390655
-0.14197345 0.101725444 -0.17766263 0.26917362 0.13401373 -0.2699715 -0.24563709 0.08271525
-0.24241501 -0.13439411 0.3302618 0.27392876 0.015575043 -0.13259725 -0.08327058 -0.22597219
0.15345192 0.21785413 -0.4436942 0.10894489 0.21689375 0.04221662 0.31396207 0.00019376622
